model/anto_encoder_pretrain_1695704784.2241461.pth (torch, 768667 bytes, 8 tensors)

lstm.weight_ih_l0 f4 [800, 25]
-0.017361982 0.005537103 0.0015136517 0.0042605256 0.015249478 -0.0065191635 0.042935472 -0.020007027
0.008515277 -0.008610406 0.005290809 0.009735876 -0.00876642 -0.012777137 0.017938772 0.0032477402
-0.013373228 0.012298704 -0.015282436 -0.004919253 0.006837099 0.020406451 -0.0126308445 -0.005016229
-0.012851412 -0.01712186 0.0005559559 -0.005586152 0.0024007717 -0.003430183 0.012322549 0.020282349
-0.014766187 0.014302919 -0.019069523 0.0031265186 0.014352876 -0.0096706655 -0.018727444 0.019992827
-0.023487292 0.011707793 0.01427086 0.0107663525 -0.015842669 0.012050596 0.012031575 -0.035879258
0.016548699 -0.015633391 0.008510972 -0.0072599817 0.027249599 0.012459387 0.051168274 0.020124609
0.0069252867 0.030646937 0.040605307 0.019155368 0.09034246 0.00532805 -0.013310069 -0.047554065
0.011246556 -0.100675486 -0.023105212 -0.10822579 -0.0015401131 -0.10442695 -0.05832886 0.030839577
-0.04340186 0.00873132 -0.055874612 -0.00906154 -0.015207909 -0.009624182 0.0069081187 -0.0027036474
-0.0026353004 0.023408493 -0.036207702 0.025863571 -0.01840108 -0.004106848 0.017590018 0.027285086
-0.037292626 0.009663927 0.017689725 -0.025312416 0.026457097 -0.03437999 0.03233045 -0.00782448
0.012371613 -0.008172895 -0.0066518523 -0.008877464 0.01359394 -0.015868738 0.022810102 -0.008444807
-0.004294311 0.0032123046 0.032262266 -0.033608843 -0.008318383 -0.005387734 0.03254981 -0.02747803
0.021406721 0.03010159 -0.020657104 -0.010537876 -0.013333824 0.01038474 -0.018364867 0.012715247
-0.0023794312 0.009441763 0.0032013338 -0.02193304 0.028540047 -0.01702982 -0.066636674 0.013978428
0.026678 0.027493682 0.029040044 -0.015153703 0.03370325 0.030683644 -0.040128518 -0.009861133
-0.027061526 0.057745703 0.059296925 0.0151507165 -0.04538381 -0.044635188 0.04346839 0.07644696
-0.010070303 0.06815631 0.06879335 0.018827729 0.058382515 -0.026558962 -0.10388684 -0.040005643
-0.0112319775 0.029325986 -0.013774169 -0.019049447 -0.004293571 -0.012975607 -0.0031380928 -0.0021114824
0.014517158 -0.012265892 0.03434134 -0.019043949 -0.0069154287 -0.0030317858 0.0031986113 0.0021492979
-0.002575933 0.011176469 0.014606331 -0.026218886 0.016021786 -0.016001452 -0.013608995 -0.02986839
0.016265009 -0.00025883445 -0.045724075 0.030249497 -0.01760054 0.025451416 -0.033556096 0.0029538309
0.034929123 -0.01651689 0.011104659 0.005698947 -0.016537024 0.0017145703 0.0035421448 -0.0013374336
0.0075453673 0.010389442 -0.0113098435 0.022592697 -0.013619884 0.0038184477 -0.008251084 -0.01048066
-0.01621935 0.00037510745 0.02366714 -0.015233079 0.0073068715 -0.008490582 0.03688929 -0.026575835
0.02012883 0.0025577683 -0.0021793414 -0.013839052 0.012440894 -0.010124192 0.015467286 -0.0047310526
-0.015709806 0.00915568 0.021112442 -0.003784285 -0.0074960175 0.0064897635 0.0008010177 -0.02531028
0.011127997 -0.022397036 0.022352759 0.021449903 -0.010102555 0.021408081 -0.015580543 0.002925703
0.005547168 -0.005335189 -0.010752491 0.019348761 0.016003223 -0.0006979261 0.012036429 0.014560009
-0.003336336 0.002731784 0.007950868 0.020423783 0.0016668134 -0.010358399 0.0163038 0.010536605
-0.010610887 0.030114127 -0.03356427 -0.047389187 0.02974325 0.0027110004 0.01024373 0.010656009
00000000: b73a 8ebc 9670 b53b b965 c63a e19b 8b3b
00000010: f2d8 793c b59e d5bb 1bdd 2f3d c7e5 a3bc
00000020: a983 0b3c a912 0dbc 865e ad3b 3983 1f3c
00000030: 08a1 0fbc 3257 51bc 55f4 923c 0ad8 543b
00000040: 621b 5bbc 8180 493c 2f63 7abc af31 a1bb
00000050: be09 e03b 6e2b a73c 9af1 4ebc 2e5f a4bb
00000060: bb8e 52bc 2543 8cbc 92bd 113a 0a0c b7bb
00000070: 4456 1d3b eccc 60bb 84e4 493c 2b27 a63c
00000080: e1ed 71bc ca56 6a3c b037 9cbc 47e6 4c3b
00000090: 5328 6b3c b671 1ebc 4c6a 99bc ffc7 a33c
000000a0: 6c68 c0bc 0bd2 3f3c 53d0 693c 5b65 303c
000000b0: 7cc8 81bc dd6f 453c 1520 453c 21f6 12bd
000000c0: 2391 873c 9911 80bc 9b71 0b3c 24e5 edbb
000000d0: 8d3a df3c 7522 4c3c d395 513d 5ddc a43c
000000e0: 84ed e23b 490f fb3c c051 263d b8eb 9c3c
000000f0: 7805 b93d ec96 ae3b 7a12 5abc 0dc8 42bd
00000100: 7a43 383c f32e cebd 2447 bdbc 7ca5 ddbd
00000110: 9fdd c9ba ccdd d5bd 3eea 6ebd 48a3 fc3c
00000120: 26c6 31bd cf0d 0f3c c7dc 64bd da76 14bc
00000130: 982a 79bc bfae 1dbc 805d e23b ad2f 31bb
00000140: 01b5 2cbb 2bc3 bf3c 874e 14bd d7df d33c
00000150: ddbd 96bc bd92 86bb f118 903c f984 df3c
00000160: 27c0 18bd 7355 1e3c 0bea 903c fc5b cfbc
00000170: 8ebc d83c 08d2 0cbd ef6c 043d 3f32 00bc
00000180: 4eb2 4a3c 9be7 05bc c8f7 d9bb c872 11bc
00000190: 1eb9 5e3c 28ff 81bc 40dc ba3c 165c 0abc
000001a0: 4bb7 8cbb 8785 523b 7025 043d 6da9 09bd
000001b0: d449 08bc 978b b0bb f352 053d 9b19 e1bc
000001c0: 265d af3c 9c97 f63c 1639 a9bc 0ea7 2cbc
000001d0: 1d76 5abc c224 2a3c eb71 96bc 9d53 503c
000001e0: 3bf0 1bbb a0b1 1a3c 78cd 513b ebac b3bc
000001f0: d1cc e93c 1f82 8bbc cf78 88bd c705 653c
00000200: d28b da3c 6e3a e13c 63e5 ed3c 3d47 78bc
00000210: 6b0c 0a3d 445c fb3c cd5d 24bd 9790 21bc
00000220: 22b0 ddbc c286 6c3d 55e1 723d b63a 783c
00000230: 60e4 39bd 63d3 36bd e90b 323d 3990 9c3d
00000240: eafd 24bc 8995 8b3d 87e3 8c3d 9c3c 9a3c
00000250: 8122 6f3d 2e92 d9bc a0c2 d4bd f5dc 23bd
00000260: 5406 38bc 0d3d f03c 0dad 61bc 960d 9cbc
00000270: 16b1 8cbb a497 54bc 76a8 4dbb cc60 0abb
00000280: 60d9 6d3c e1f6 48bc 81a9 0c3d 0e02 9cbc
00000290: d29a e2bb edb0 46bb cb9f 513b 3cdb 0c3b
000002a0: fcd0 28bb 821d 373c 644f 6f3c fdc8 d6bc
000002b0: 1f40 833c 7a15 83bc 43f8 5ebc 8eae f4bc
000002c0: 323e 853c 2cb4 87b9 2b49 3bbd cbcd f73c
000002d0: 022f 90bc 7d7f d03c 1e72 09bd 0f95 413b
000002e0: d711 0f3d 6e4e 87bc 51f0 353c 3bbe ba3b
000002f0: a778 87bc 6fbb e03a 5423 683b d34c afba
00000300: 213f f73b 7a38 2a3c ec4c 39bc 5214 b93c
00000310: ef25 5fbc ec3e 7a3b 8e2f 07bc 13b7 2bbc
00000320: 71de 84bc 12aa c439 97e1 c13c 2a94 79bc
00000330: 7b6e ef3b 151c 0bbc 3919 173d 91b5 d9bc
00000340: 37e5 a43c 3ba0 273b 48d3 0ebb 31bd 62bc
00000350: e4d4 4b3c f0df 25bc 806a 7d3c f206 9bbb
00000360: dab1 80bc b501 163c 00f4 ac3c c401 78bb
00000370: 27a1 f5bb 15a8 d43b 63fb 513a 8157 cfbc
00000380: 3452 363c fd79 b7bc 221d b73c b5b7 af3c
00000390: 3085 25bc 0060 af3c 8945 7fbc 27bd 3f3b
000003a0: 05c5 b53b cfd2 aebb 372b 30bc 4b81 9e3c
000003b0: 3119 833c 07f5 36ba 7134 453c 1b8d 6e3c
000003c0: 6ea6 5abb bb07 333b 5c44 023c c74f a73c
000003d0: fa78 da3a 46b6 29bc 8c8f 853c b9a1 2c3c
000003e0: 49d9 2dbc e7b1 f63c b07a 09bd 2a1b 42bd
000003f0: 1ea8 f33c 0aab 313b 51d5 273c 8b96 2e3c

lstm.weight_hh_l0 f4 [800, 200]
0.02892385 -0.0833919 -0.5082262 -0.018038087 -0.09653552 -0.2926768 0.067490675 -0.047059234
0.0878876 0.09481552 -0.32471466 -0.3758184 0.036000185 0.010616297 -0.33781606 0.14945357
-0.25386652 -0.06399004 0.010025204 -0.15379013 -0.16717172 -0.13612342 0.15242736 -0.23019302
0.069233865 0.46801433 0.27043912 -0.01380388 0.3785009 -0.06013821 -0.1013209 0.24397996
-0.36998776 0.078223884 -0.05158719 -0.3410717 0.0052259965 -0.18319559 0.29786652 -0.049781337
0.022456676 0.29591182 -0.028716633 0.36440587 -0.05666772 0.16716933 -0.0692639 0.32018998
-0.068436265 0.13518736 0.3102685 -0.16101396 -0.08233935 -0.06312644 0.08570743 -0.39326698
0.3877066 0.17901963 0.19735947 -0.25729516 -0.36984232 -0.048785985 -0.1187222 0.28625372
-0.12209395 0.082024686 -0.2650795 -0.07591684 -0.06130916 -0.057525568 0.27459985 0.0011164062
0.09141797 0.02693429 -0.059990607 0.11853089 -0.038566787 -0.02538936 -0.11875175 0.14765477
-0.18090816 0.051775947 0.06746982 0.08297758 -0.17761283 0.15523328 -0.27223364 -0.08872298
-0.041738115 -0.4029383 0.33484846 0.26915106 -0.0675521 0.34556872 -0.34807497 -0.16792102
0.22064334 0.18120798 0.17926945 0.05567557 0.27223423 0.12010427 -0.083666876 -0.258377
-0.050790656 0.17210741 0.1147878 0.1764686 0.10627364 -0.17996629 0.084559135 0.47966686
-0.0841602 0.09533308 -0.18677177 0.101598516 0.096104756 0.00401408 -0.19504416 -0.17539215
0.08465812 -0.0022075765 -0.13002586 -0.3418911 0.050159812 -0.052819025 -0.17171344 -0.061128158
-0.11354501 0.41300902 -0.46986672 -0.0409355 0.070962936 0.023809928 0.20698205 -0.11473374
-0.044284258 -0.054676615 0.21641971 -0.06486048 -0.2750566 -0.12806281 0.11000826 0.25568506
0.04996767 -0.11567181 -0.15350004 -0.09623795 0.22066942 -0.024732059 -0.18407136 -0.009095819
-0.034968134 -0.060747568 0.041131485 -0.32097304 0.0062195295 -0.056850612 0.040211257 -0.013076554
0.18308777 0.13910806 -0.48852423 -0.02212089 -0.29089764 0.021566622 -0.34714705 -0.1376322
0.14871953 0.24847429 -0.10783448 0.051537964 -0.3857922 -0.020621808 -0.0661989 0.15540753
-0.0030251637 -0.00086557283 -0.35757065 0.18294387 0.42824295 -0.12839697 0.12660353 -0.081695504
-0.105329156 -0.15756239 0.40358573 0.018752404 -0.08695118 0.009381541 0.044243086 -0.08438481
0.060523383 0.34165928 -0.30032703 0.012254929 0.017918129 -0.045886885 0.11510692 0.39994088
0.001248403 -0.1066645 -0.43681893 0.053774785 -0.13025889 -0.44986996 0.016219465 -0.009621653
-0.0711691 0.17286602 -0.38878337 -0.58715934 0.063856855 -0.09497135 -0.41472957 0.17821535
0.029723465 -0.011964401 -0.038694937 -0.0310761 -0.121753186 0.0036241494 0.11537048 -0.16341838
-0.030329848 0.51396835 -0.023634836 -0.07909415 0.5192111 0.18099084 -0.0036968456 0.10479255
-0.4776698 0.03436696 0.011036542 -0.2927061 0.061937418 -0.13678724 0.4067452 -0.001137142
-0.025771018 0.24359801 -0.009627744 0.5303452 -0.016424034 0.057374794 -0.061251376 0.19907503
-0.13979243 -0.04793314 0.27318215 -0.14730409 -0.05067616 0.033612106 -0.045700457 -0.48397654
00000000: b6f1 ec3c 5fc9 aabd 1d1b 02bf 9cc4 93bc
00000010: 6ab4 c5bd bcd9 95be 8d38 8a3d 2fc1 40bd
00000020: 6afe b33d a42e c23d 0041 a6be 456b c0be
00000030: ee74 133d faef 2d3c 3af6 acbe 5b0a 193e
00000040: cbfa 81be 360d 83bd c140 243c 297b 1dbe
00000050: 102f 2bbe f063 0bbe eb15 1c3e b8b7 6bbe
00000060: 7cca 8d3d 939f ef3e ff76 8a3e ab29 62bc
00000070: dfca c13e 7c53 76bd 5581 cfbd e2d5 793e
00000080: 096f bdbe d833 a03d 174d 53bd f3a0 aebe
00000090: d63e ab3b a097 3bbe f681 983e 84e7 4bbd
000000a0: 10f7 b73c c181 973e 253f ebbc 6893 ba3e
000000b0: 691c 68bd 702e 2b3e 3bda 8dbd f1ef a33e
000000c0: 5028 8cbd 8e6e 0a3e 83db 9e3e d8e0 24be
000000d0: 88a1 a8bd 6f48 81bd 6187 af3d 4a5a c9be
000000e0: 7b81 c63e ec50 373e 9a18 4a3e 31bc 83be
000000f0: f95b bdbe d0d3 47bd a024 f3bd d98f 923e
00000100: 650c fabd 8ffc a73d 80b8 87be 4a7a 9bbd
00000110: 501f 7bbd ee9f 6bbd 5a98 8c3e 6054 923a
00000120: 5839 bb3d 4da5 dc3c b6b8 75bd 53c0 f23d
00000130: 35f8 1dbd 59fd cfbc 1e34 f3bd d032 173e
00000140: fd3f 39be 0413 543d 9e2d 8a3d 26f0 a93d
00000150: 23e0 35be 79f5 1e3e 3562 8bbe 65b4 b5bd
00000160: 96f5 2abd ee4d cebe 4271 ab3e 2bce 893e
00000170: c158 8abd 62ee b03e e236 b2be 7df3 2bbe
00000180: 54f0 613e 968e 393e 6992 373e 110c 643d
00000190: 4962 8b3e 3af9 f53d 8a59 abbd fd49 84be
000001a0: dd09 50bd ed3c 303e de15 eb3d 2fb4 343e
000001b0: ffa5 d93d 1549 38be 572d ad3d e596 f53e
000001c0: 2f5c acbd fd3d c33d 1941 3fbe e212 d03d
000001d0: 92d2 c43d 8b88 833b a8b9 47be 009a 33be
000001e0: 3d61 ad3d fdac 10bb 8025 05be 5a0c afbe
000001f0: 6074 4d3d c358 58bd a6d5 2fbe 8561 7abd
00000200: 498a e8bd eb75 d33e 5f92 f0be fcab 27bd
00000210: 0455 913d 0a0d c33c 1af3 533e 86f9 eabd
00000220: 6963 35bd 96f4 5fbd 219d 5d3e 92d5 84bd
00000230: 38d4 8cbe e622 03be 034c e13d 27e9 823e
00000240: e6aa 4c3d 58e5 ecbd 1d2f 1dbe 6718 c5bd
00000250: 2af7 613e e39a cabc 347d 3cbe a106 15bc
00000260: bf3a 0fbd 71d2 78bd 7d79 283d 9456 a4be
00000270: 32cd cb3b 30dc 68bd 8fb4 243d 0b3f 56bc
00000280: 5c7b 3b3e 5872 0e3e d91f fabe de36 b5bc
00000290: 89f0 94be 7cac b03c 42bd b1be 75ef 0cbe
000002a0: ef49 183e 0b70 7e3e 53d8 dcbd 7919 533d
000002b0: 8e86 c5be 11ef a8bc 4a93 87bd 2723 1f3e
000002c0: d341 46bb 9ce7 62ba 8013 b7be a355 3b3e
000002d0: a942 db3e 7f7a 03be 5ba4 013e f94f a7bd
000002e0: d0b6 d7bd 0958 21be caa2 ce3e a49e 993c
000002f0: 7613 b2bd 09b5 193c 3d38 353d f1d1 acbd
00000300: 5ee7 773d f7ed ae3e 77c4 99be e6c8 483c
00000310: 0ac9 923c e3f3 3bbd 2dbd eb3d 0dc5 cc3e
00000320: 74a1 a33a eb72 dabd bba6 dfbe f342 5c3d
00000330: 9662 05be 5b55 e6be afde 843c 23a4 1dbc
00000340: 1bc1 91bd ca03 313e 9d0e c7be 1350 16bf
00000350: 62c7 823d 5780 c2bd 6f57 d4be 167e 363e
00000360: a07e f33c 5606 44bc 957e 1ebd 4e93 febc
00000370: bc59 f9bd 2383 6d3b 5c47 ec3d 2657 27be
00000380: 4d76 f8bc 6e93 033f d89d c1bc 1dfc a1bd
00000390: 05eb 043f aa55 393e c746 72bb 7a9d d63d
000003a0: 2391 f4be 5fc4 0c3d 9dd2 343c 93dd 95be
000003b0: 17b2 7d3d f411 0cbe e840 d03e 270c 95ba
000003c0: be1d d3bc c271 793e afbd 1dbc b4c4 073f
000003d0: b28b 86bc d501 6b3d b9e2 7abd 53da 4b3e
000003e0: bf25 0fbe 8a55 44bd 88de 8b3e e2d6 16be
000003f0: ce91 4fbd d9ac 093d 6730 3bbd c6cb f7be

lstm.bias_ih_l0 f4 [800]
0.47572663 0.46865946 -0.061148755 0.3398068 0.3630132 -0.0799723 0.4318427 1.4198097
0.68174523 0.2680507 -0.052912876 0.3204715 0.4705144 0.13451941 0.6843348 0.60106826
2.5364316 0.11590492 0.53060997 1.0148135 0.931555 1.7683518 1.0403167 0.16569486
0.043666422 -0.19722581 1.3380902 1.6149102 0.8144673 0.2593771 0.4014832 0.8024526
0.46689183 0.6554151 2.7255933 -0.22037344 0.90076613 2.6077368 0.90964496 0.55405515
1.3945562 0.25496092 0.79641414 0.4891457 0.70754546 1.0779209 0.41852573 0.50764376
1.2039297 0.85307837 1.5069159 0.2041906 0.8482642 0.78266984 0.09339008 0.0678823
0.23649475 0.7471629 -0.029498514 0.5710083 -0.0012596335 0.6843444 1.0414131 0.24200997
0.8423518 0.8644527 -0.41122767 0.42111272 0.8449321 0.45851997 0.43096486 1.1122274
2.2071416 0.5546412 0.7614481 1.4753406 1.1172113 0.59252214 -0.00062943524 1.4467361
0.24819332 0.549005 0.3110422 1.8084378 0.692402 0.81345505 0.8294776 0.62659734
0.0073831654 0.25709793 -0.2635918 0.7558051 0.9364774 0.21992421 -0.107310206 2.159038
-0.17087722 -0.056799497 1.4537958 0.42093602 0.36780816 0.708736 0.27369645 0.45283234
0.716681 0.4921137 0.70941764 -0.013706045 1.0885613 0.5144746 0.5243199 -0.28427333
0.8258644 0.26625684 0.7768025 0.4132128 0.087534174 0.23673397 0.6017851 0.021821298
0.88388824 0.9762412 0.92979634 -0.103178866 0.4867206 0.22504646 1.7582082 0.22787653
-0.11403747 -0.21046984 -0.07307574 0.49517715 0.2860548 0.81603754 1.1381646 0.66962636
0.25263363 0.4732216 0.43820748 0.48641992 1.0427543 0.8532428 0.47693434 0.57668227
0.58235615 1.2792747 0.63119686 0.54257673 0.72890717 0.44946855 0.50228757 0.95425683
0.7579395 1.113071 0.45104632 0.219793 0.24160656 1.095218 0.31960186 2.239733
0.75675195 0.30812326 0.20803353 1.3840861 0.20789397 1.5052019 0.48004597 0.08150249
1.766939 0.1621699 1.1625372 0.8167511 0.5985597 0.4978289 0.24917617 1.9512258
0.7054766 0.19780442 -0.27877432 0.57765657 0.5923162 0.9009975 2.3804872 1.5476729
0.44778442 0.104937226 -0.16149539 1.0855161 1.9629493 2.348373 0.3467052 0.53983384
0.4449581 -0.16654143 1.001277 0.83432084 0.09360731 1.1363095 0.7940682 0.050359294
-0.36616185 -0.43726528 0.043627348 -0.18327561 -0.16165149 0.118201576 -0.36298427 -0.33708104
-0.36771256 -0.42313203 -0.56195617 -0.40396947 -0.48490372 -0.38828656 -0.32549548 -0.50007635
-0.37393993 -0.52065355 -0.22612494 -0.35214582 -0.32726726 -0.42977563 -0.30364484 -0.37678045
-0.48757005 -0.21552621 -0.32952318 -0.49100015 -0.20407766 -0.4330839 -0.4323554 0.06461906
-0.0968704 -0.37898174 -0.38496602 -0.19465025 -0.33077136 -0.48368773 -0.24460125 -0.2730793
-0.45094043 -0.1377462 -0.33621225 -0.17529811 -0.30212063 -0.40207505 -0.39407837 -0.031906895
-0.38354623 -0.35294577 -0.36274377 -0.25663793 -0.006054339 -0.22679774 -0.36354327 -0.22385421
00000000: 7192 f33e 22f4 ef3e 1e77 7abd 28fb ad3e
00000010: dedc b93e 84c8 a3bd 7d1a dd3e 53bc b53f
00000020: db86 2e3f f13d 893e 2cbb 58bd d714 a43e
00000030: 43e7 f03e 75bf 093e 9130 2f3f 9cdf 193f
00000040: e554 2240 8f5f ed3d 0ed6 073f 69e5 813f
00000050: 637a 6e3f 5a59 e23f 1929 853f eaab 293e
00000060: 90db 323d 90f5 49be 8a46 ab3f 61b5 ce3f
00000070: ee80 503f 13cd 843e 358f cd3e 896d 4d3f
00000080: 720c ef3e 49c9 273f 1f70 2e40 93a9 61be
00000090: 9c98 663f 29e5 2640 7ede 683f 8fd6 0d3f
000000a0: d180 b23f 3d8a 823e cce1 4b3f 4e71 fa3e
000000b0: b321 353f 50f9 893f 0149 d63e f1f4 013f
000000c0: 5e1a 9a3f 5863 5a3f 9fe2 c03f 5717 513e
000000d0: d827 593f 0d5d 483f 4c43 bf3d e005 8b3d
000000e0: ae2b 723e 1146 3f3f dea6 f1bc 9a2d 123f
000000f0: 491a a5ba 3231 2f3f 064d 853f 76d1 773e
00000100: 5ea4 573f c64c 5d3f 6f8c d2be 169c d73e
00000110: 784d 583f 21c3 ea3e 6da7 dc3e 785d 8e3f
00000120: cf41 0d40 f7fc 0d3f 43ee 423f f6d7 bc3f
00000130: c800 8f3f 88af 173f af00 25ba a62e b93f
00000140: 6426 7e3e 978b 0c3f ec40 9f3e e47a e73f
00000150: 4241 313f 973e 503f a558 543f af68 203f
00000160: 7bee f13b 57a2 833e 81f5 86be 717c 413f
00000170: fcbc 6f3f d033 613e 74c5 dbbd ae2d 0a40
00000180: 70fa 2ebe 97a6 68bd fb15 ba3f ed84 d73e
00000190: 5a51 bc3e b96f 353f f121 8c3e a4d9 e73e
000001a0: 6878 373f 54f6 fb3e 659c 353f 528f 60bc
000001b0: fa55 8b3f 9bb4 033f d439 063f 468c 91be
000001c0: d96b 533f d152 883e 87dc 463f a190 d33e
000001d0: 1e45 b33d 646a 723e 970e 1a3f 94c2 b23c
000001e0: 8046 623f f1ea 793f 2207 6e3f 714f d3bd
000001f0: 7133 f93e 9472 663e f70c e13f 7758 693e
00000200: 7a8c e9bd 6885 57be bca8 95bd dc87 fd3e
00000210: c675 923e d6e7 503f 61af 913f a26c 2b3f
00000220: 3259 813e 1a4a f23e bb5c e03e 080c f93e
00000230: f978 853f 1f6e 5a3f bd30 f43e 73a1 133f
00000240: 4b15 153f 46bf a33f 1e96 213f 4fe6 0a3f
00000250: a999 3a3f be20 e63e eb95 003f 2d4a 743f
00000260: 5308 423f 1c79 8e3f 8bef e63e 6b11 613e
00000270: b667 773e 1a30 8c3f dba2 a33e c957 0f40
00000280: 7fba 413f 55c2 9d3e be06 553e bc29 b13f
00000290: 28e2 543e 75aa c03f 96c8 f53e c7ea a63d
000002a0: 0f2b e23f de0f 263e 05ce 943f 9a16 513f
000002b0: 353b 193f 6ee3 fe3e 0a28 7f3e c4c1 f93f
000002c0: 1d9a 343f 3e8d 4a3e 82bb 8ebe 4de1 133f
000002d0: 09a2 173f c6a7 663f e759 1840 251a c63f
000002e0: 0044 e53e 54e9 d63d 0c5f 25be 31f2 8a3f
000002f0: ec41 fb3f be4b 1640 5883 b13e 8d32 0a3f
00000300: 8cd1 e33e d689 2abe d829 803f 0d96 553f
00000310: 30b5 bf3d 9772 913f 0e48 4b3f 8c45 4e3d
00000320: 9179 bbbe 3ce1 dfbe 97b2 323d 9aac 3bbe
00000330: f887 25be ab13 f23d 13d9 b9be e395 acbe
00000340: d244 bcbe c3a4 d8be 5cdc 0fbf 16d5 cebe
00000350: 4d45 f8be 7fcd c6be 58a7 a6be 0105 00bf
00000360: 0e75 bfbe 8d49 05bf 4c8d 67be 754c b4be
00000370: 938f a7be 8d0b dcbe 5677 9bbe 5ee9 c0be
00000380: c8a2 f9be e7b2 5cbe 43b7 a8be 5f64 fbbe
00000390: bcf9 50be 2cbd ddbe b05d ddbe ff56 843d
000003a0: fd63 c6bd e509 c2be 441a c5be 6552 47be
000003b0: dd5a a9be eba5 f7be c078 7abe 0dd1 8bbe
000003c0: aae1 e6be 570d 0dbe 0324 acbe 5981 33be
000003d0: 8eaf 9abe c8dc cdbe a4c4 c9be ceb0 02bd
000003e0: 2c60 c4be 4fb5 b4be 8db9 b9be 0c66 83be
000003f0: 7a63 c6bb ab3d 68be 5822 babe 0a3a 65be

lstm.bias_hh_l0 f4 [800]
0.45686978 0.4341985 0.017842583 0.3692719 0.38701895 -0.016211057 0.47561473 1.4013461
0.69699454 0.3279843 -0.06402864 0.37565994 0.3619274 0.19824524 0.75852096 0.4954324
2.5083876 0.12815635 0.5520449 1.0741055 0.8318565 1.7151078 1.1442693 0.2546582
0.13915063 -0.27399084 1.2856227 1.605293 0.7266337 0.16924922 0.33054626 0.8437333
0.5037975 0.6168851 2.6975923 -0.12680556 0.9034435 2.5637498 0.9702872 0.53150564
1.4194521 0.2485348 0.749674 0.53089297 0.75812507 1.1429453 0.4051655 0.5733521
1.1697645 0.95232975 1.4682708 0.29647312 0.83430153 0.75831807 0.05673941 -0.02492677
0.15309712 0.71196985 -0.04585381 0.6590846 -0.08592589 0.69142634 0.95964843 0.2671756
0.8326059 0.7921593 -0.4196071 0.38218963 0.8759239 0.5907637 0.4382463 1.1112962
2.2460241 0.5865519 0.78423375 1.5305498 1.134795 0.53215444 -0.015651913 1.4923695
0.12129071 0.5393277 0.37353453 1.9200557 0.65816927 0.8582359 0.89327914 0.5581015
0.010191559 0.13125603 -0.2992587 0.73271716 1.0300256 0.2897043 -0.09085901 2.2233407
-0.14586818 0.030030387 1.5100037 0.42877147 0.34583452 0.64245534 0.31706008 0.47334194
0.76652455 0.46684697 0.643367 -0.06949026 1.1035966 0.4436587 0.40369323 -0.31206635
0.8409244 0.2736445 0.77654034 0.47638854 0.072773665 0.24202055 0.70803744 0.051560357
0.8191617 0.9577428 0.9307063 -0.04576194 0.5116263 0.28950718 1.8243287 0.27400282
-0.15752915 -0.18395633 -0.19441189 0.49072745 0.2747481 0.7176093 1.1634376 0.6579651
0.30955064 0.4856723 0.4242183 0.3876932 1.0413616 0.8815651 0.5286473 0.5599716
0.61055464 1.4003485 0.6928226 0.49090177 0.63863856 0.5271143 0.5929263 1.0552593
0.75122476 1.0229661 0.5173931 0.21090436 0.17534855 1.201725 0.30656335 2.2098033
0.79731256 0.2971525 0.14616519 1.4025915 0.26277834 1.4947422 0.42400604 0.089643925
1.6503197 0.24174643 1.1390541 0.83636606 0.5326996 0.5202715 0.30839857 1.861689
0.65502816 0.23443025 -0.23614904 0.5663361 0.5618938 0.89532804 2.35904 1.6038803
0.39897782 -0.010715148 -0.23422267 1.1270947 2.0731864 2.383099 0.23797385 0.44619274
0.50377315 -0.093861714 1.0736086 0.7465296 0.051535536 1.1466106 0.7648508 0.022173837
-0.35033572 -0.33088046 0.016677136 -0.1379403 -0.15062246 0.17267737 -0.29067007 -0.36805272
-0.42065695 -0.39624223 -0.5431324 -0.4297462 -0.412494 -0.4047748 -0.38090414 -0.4725204
-0.44217825 -0.55866706 -0.34722242 -0.33796835 -0.41675606 -0.37710774 -0.38354188 -0.32926625
-0.57969505 -0.13788617 -0.39640617 -0.45020267 -0.15972131 -0.40085796 -0.42109495 0.034811895
-0.14261332 -0.34943572 -0.47378287 -0.104849316 -0.31950793 -0.3819699 -0.2703297 -0.24073131
-0.39030004 -0.13652186 -0.30597913 -0.19874083 -0.33369023 -0.35676864 -0.3358884 -0.005147902
-0.2725196 -0.43048102 -0.3126028 -0.29060033 -0.030603755 -0.15202725 -0.35695392 -0.18488754
00000000: d6ea e93e 444f de3e 9c2a 923c 3511 bd3e
00000010: 5927 c63e 0dcd 84bc c683 f33e 4f5f b33f
00000020: 3c6e 323f 8fed a73e 7321 83bd 8056 c03e
00000030: 8c4e b93e cd00 4b3e 6e2e 423f 51a9 fd3e
00000040: 6c89 2040 6b3b 033e d152 0d3f 4a7c 893f
00000050: 8cf4 543f a788 db3f 6b77 923f 8f62 823e
00000060: 817d 0e3e 8748 8cbe 498f a43f 3e7a cd3f
00000070: ab04 3a3f ab4f 2d3e 5c3d a93e e8fe 573f
00000080: dff8 003f 2fec 1d3f 5aa5 2c40 51d9 01be
00000090: 1348 673f 7a14 2440 be64 783f c110 083f
000000a0: 9bb0 b53f e87f 7e3e a3ea 3f3f 9ae8 073f
000000b0: 7c14 423f 084c 923f da71 cf3e 34c7 123f
000000c0: d8ba 953f e2cb 733f 4cf0 bb3f 53cb 973e
000000d0: c994 553f 2221 423f 9567 683d 3a33 ccbc
000000e0: 7ec5 1c3e a843 363f 34d1 3bbd c5b9 283f
000000f0: eaf9 afbd 5101 313f 85ab 753f 3ecb 883e
00000100: a925 553f f4ca 4a3f bed6 d6be 5cae c33e
00000110: 8c3c 603f 4a3c 173f d261 e03e f43e 8e3f
00000120: dcbe 0f40 4428 163f 8bc3 483f 0ee9 c33f
00000130: f640 913f 463b 083f 7138 80bc f705 bf3f
00000140: 4467 f83d 6111 0a3f eb3f bf3e 63c4 f53f
00000150: c87d 283f 59b5 5b3f f1ad 643f bddf 0e3f
00000160: 7ffa 263c fb67 063e 7038 99be 5a93 3b3f
00000170: e1d7 833f 1f54 943e 4a14 babd 374b 0e40
00000180: 785e 15be 4902 f63c cd47 c13f ef87 db3e
00000190: 3911 b13e f477 243f b355 a23e e059 f23e
000001a0: f43a 443f 9106 ef3e b3b3 243f e950 8ebd
000001b0: a742 8d3f 3c27 e33e e1b0 ce3e 29c7 9fbe
000001c0: d246 573f 221b 8c3e 59cb 463f 33e9 f33e
000001d0: 5c0a 953d 3cd4 773e f141 353f f430 533d
000001e0: 95b4 513f a22e 753f c542 6e3f df70 3bbd
000001f0: f1f9 023f 493a 943e 9a83 e93f 194a 8c3e
00000200: 524f 21be 0c5f 3cbe e913 47be a140 fb3e
00000210: c8ab 8c3e 3eb5 373f 86eb 943f 6770 283f
00000220: 6c7d 9e3e 0aaa f83e 2433 d93e b97f c63e
00000230: 564b 853f 40ae 613f 6e55 073f 4c5a 0f3f
00000240: 4f4d 1c3f 9f3e b33f d25c 313f 7a57 fb3e
00000250: d17d 233f f6f0 063f 05ca 173f bd12 873f
00000260: 4450 403f 8ef0 823f e073 043f 50f7 573e
00000270: 928e 333e 20d2 993f dff5 9c3e 6b6d 0d40
00000280: ad1c 4c3f 5f24 983e 54ac 153e 1e88 b33f
00000290: e28a 863e b653 bf3f 5217 d93e 3c97 b73d
000002a0: ad3d d33f 608c 773e 86cc 913f 161c 563f
000002b0: 005f 083f 8330 053f 6be6 9d3e d34b ee3f
000002c0: edaf 273f 7c0e 703e 0ed1 71be 67fb 103f
000002d0: 46d8 0f3f 3834 653f 83fa 1640 f34b cd3f
000002e0: d246 cc3e 978e 2fbc 11d8 6fbe a444 903f
000002f0: 16af 0440 b284 1840 6baf 733e 6073 e43e
00000300: 47f7 003f 923a c0bd 026c 893f 901c 3f3f
00000310: ed16 533d 23c4 923f 43cd 433f e8a5 b53c
00000320: 345f b3be 2a69 a9be 7d9e 883c 3940 0dbe
00000330: c63c 1abe 56d2 303e b5d2 94be 6871 bcbe
00000340: 5960 d7be 43e0 cabe ba0a 0bbf b207 dcbe
00000350: 6a32 d3be a53e cfbe de05 c3be 32ee f1be
00000360: 3065 e2be ce04 0fbf 23c7 b1be 300a adbe
00000370: 0d61 d5be 4414 c1be 9a5f c4be 9695 a8be
00000380: e566 14bf 0832 0dbe c0f5 cabe f780 e6be
00000390: fc8d 23be 413d cdbe c299 d7be eb96 0e3d
000003a0: 3a09 12be 3de9 b2be ab93 f2be 3dbb d6bd
000003b0: 8b96 a3be 8f91 c3be a868 8abe 4582 76be
000003c0: 68d5 c7be 63cc 0bbe 4ca9 9cbe b782 4bbe
000003d0: 72d9 aabe 61aa b6be 90f9 abbe bbaf a8bb
000003e0: b087 8bbe 0268 dcbe 790d a0be 91c9 94be
000003f0: bab4 fabc 08ad 1bbe aac2 b6be 2953 3dbe

linear1.weight f4 [25, 200]
0.32242182 0.20363247 0.38742098 0.12560548 0.47537315 -0.4381421 -0.07712003 0.5536389
0.66796285 0.0070086285 0.77746505 0.73503655 -0.23074222 -0.6331199 -1.4067056 0.37447914
-0.8831222 -0.026728973 -0.53095865 -0.16544408 -0.6132591 -0.45035118 0.51276726 -0.69010764
0.11080216 -0.5737149 0.052186668 -0.29010963 0.12918939 -0.691487 -1.0339675 0.00041992773
-0.607403 -0.7896339 -0.5084273 0.6344862 -0.45166296 -0.6772871 1.1879297 0.27737108
0.74184155 -0.7178171 0.7265206 1.5718606 0.9121504 -0.7757102 -0.09279373 0.0002562731
0.6676516 0.38763174 0.033806674 1.0653983 -0.00024995828 -0.29743296 0.82708377 -0.56535405
1.0026654 0.86411905 -0.99897677 -0.7199834 -0.81536424 0.25161657 0.72827774 -0.56753856
-0.8840845 -0.5202147 1.009475 0.2786849 -0.24664873 0.8578991 0.10725632 0.044500776
-0.14926277 0.22173081 0.66945696 -0.83820146 -0.31123012 -0.7707364 -0.2752084 -0.8269012
-0.6196465 -0.372693 -0.72414005 -0.58470523 -0.16408013 0.00034287563 -0.00039970718 0.66421497
0.4943048 -0.6542415 -0.14178926 -0.21500409 0.7524886 -0.91171306 0.98436654 -0.5009314
0.7419948 0.23638664 0.0004466417 -1.226146 0.8208862 0.122950815 0.8022425 0.56295455
0.33609158 -0.018297257 0.2394756 -0.83050525 0.14729068 -0.6028648 -0.3709513 0.29679644
0.7209873 0.9511193 -5.221799e-05 -0.81388754 -0.28337392 -0.16464321 0.54143417 0.92412686
-0.19454701 0.34855628 0.49964818 -0.8145743 -0.65274084 0.026254203 0.7149931 0.05632711
0.5980296 0.61321104 0.58185565 0.2782796 0.3099518 0.08979745 0.112007886 -0.6445342
-0.6542938 0.010972072 0.8397942 0.72236776 -0.77678317 0.6610056 0.96954054 0.0005861472
0.7446745 -0.0007154989 0.8539601 -0.6285104 -0.00029611125 0.29544178 -0.28287163 -0.6039606
0.5540322 -0.81760395 0.58017623 -0.7577086 -0.31516874 0.6702581 -0.4351756 -0.42534763
0.73772013 -0.9627916 -1.2057985 0.107417546 -0.77915907 -0.9330712 -0.31901357 -0.80035543
0.21639334 -0.8945108 0.9265285 0.39638996 -1.204407 -0.07105333 0.6875737 -0.2069955
-0.22029744 -0.2858704 0.21460587 0.18876591 -0.9722948 -9.238539e-05 0.5538352 0.56147224
0.89780885 -0.24316168 0.48626125 0.016270028 0.643794 -0.83800364 -0.4869664 -0.23019911
0.48035812 0.7492833 -7.322074e-05 0.56071985 0.18351886 -0.8374472 0.2996451 1.5182198
0.6583628 1.258285 0.46712616 0.44369337 -0.2270108 -0.5389635 -0.27185902 0.9438978
-0.45949268 0.8464125 0.8370228 0.66511786 0.80510074 -0.61960196 -1.0221306 -0.03219997
-0.4944371 -0.5980361 0.7798591 -0.007996731 0.3405283 0.46235827 0.3323235 -0.8390554
-0.44220775 -0.623225 0.6078346 0.7212995 -0.10475082 -0.45794293 -0.95545346 0.00020730936
-1.0289198 0.022521097 -0.68779564 0.7507637 -0.13477166 -0.44561678 0.84510535 -0.34708765
0.5887109 -0.7315813 0.015803797 0.85474104 0.0016067037 -0.76274264 -0.89606065 0.00017229868
0.92947537 0.58632153 0.4864475 0.7873428 -0.00023795375 -0.49515337 0.34656557 -0.8027538
00000000: 7914 a53e 0885 503e 0b5c c63e b99e 003e
00000010: 1c64 f33e 2954 e0be 1bf1 9dbd 47bb 0d3f
00000020: 9dff 2a3f a3a8 e53b f307 473f 5b2b 3c3f
00000030: b047 6cbe 2514 22bf ee0e b4bf bbbb bf3e
00000040: 4c14 62bf b8f6 dabc e8ec 07bf 2c6a 29be
00000050: 8cfe 1cbf 6e94 e6be b744 033f e5aa 30bf
00000060: 3eec e23d fbde 12bf b0c1 553d 4089 94be
00000070: 394a 043e 4b05 31bf 0c59 84bf bf29 dc39
00000080: c37e 1bbf 7325 4abf 4b28 02bf b06d 223f
00000090: 5e40 e7be b062 2dbf 150e 983f 9503 8e3e
000000a0: 54e9 3d3f ddc2 37bf 41fd 393f ba32 c93f
000000b0: b082 693f f294 46bf a40a bebd 655c 8639
000000c0: 37eb 2a3f ab77 c63e de78 0a3d f95e 883f
000000d0: d50c 83b9 2249 98be c3bb 533f 0bbb 10bf
000000e0: 5757 803f e836 5d3f f1bc 7fbf d550 38bf
000000f0: b6bb 50bf e3d3 803e 6970 3a3f 354a 11bf
00000100: 5d53 62bf ca2c 05bf 7a36 813f caaf 8e3e
00000110: 7c91 7cbe 479f 5b3f 34a9 db3d 7246 363d
00000120: 57d8 18be 670d 633e 8861 2b3f 5f94 56bf
00000130: 8e59 9fbe fb4e 45bf 1ee8 8cbe ccaf 53bf
00000140: 27a1 1ebf 9ed1 bebe 3e61 39bf 3eaf 15bf
00000150: 9f04 28be fdc3 b339 ca8f d1b9 fe09 2a3f
00000160: 8515 fd3e 5f7c 27bf 3431 11be 082a 5cbe
00000170: 18a3 403f 0766 69bf 72ff 7b3f 0a3d 00bf
00000180: 5ff3 3d3f 570f 723e 3c2b ea39 5af2 9cbf
00000190: 9925 523f a3cd fb3d c45f 4d3f ca1d 103f
000001a0: 3214 ac3e 21e4 95bc 1739 753e fe9b 54bf
000001b0: 5ed3 163e 5955 1abf 54ed bdbe b4f5 973e
000001c0: a092 383f 8e7c 733f a404 5bb8 ef5a 50bf
000001d0: 6316 91be 3b98 28be 6e9b 0a3f 9493 6c3f
000001e0: 5537 47be f875 b23e e3d1 ff3e f187 50bf
000001f0: 061a 27bf 0e13 d73c ca09 373f 41b7 663d
00000200: 7818 193f 66fb 1c3f 7ef4 143f aa7a 8e3e
00000210: 01b2 9e3e bae7 b73d 6464 e53d 3100 25bf
00000220: cc7f 27bf 35c4 333c c1fc 563f 18ed 383f
00000230: 43db 46bf aa37 293f cf33 783f aca7 193a
00000240: fda2 3e3f 5290 3bba 219d 5a3f 0fe6 20bf
00000250: 613f 9bb9 2544 973e 8dd4 90be 299d 1abf
00000260: 0ed5 0d3f 7e4e 51bf 6e86 143f 31f9 41bf
00000270: cc5d a1be 0996 2b3f 56cf debe 2ac7 d9be
00000280: 3adb 3c3f 8379 76bf 9b57 9abf bbfd db3d
00000290: f876 47bf c1dd 6ebf bf55 a3be 18e4 4cbf
000002a0: 3796 5d3e a9fe 64bf f930 6d3f a0f3 ca3e
000002b0: 022a 9abf 6984 91bd d404 303f a1f6 53be
000002c0: a795 61be 9b5d 92be a4c1 5b3e da4b 413e
000002d0: 50e8 78bf 07bf c1b8 25c8 0d3f a5bc 0f3f
000002e0: cdd6 653f 60ff 78be 3cf7 f83e b948 853c
000002f0: afcf 243f 6887 56bf a953 f9be 51b9 6bbe
00000300: 80f1 f53e 08d1 3f3f 168e 99b8 568b 0f3f
00000310: 5eec 3b3e f162 56bf 156b 993e 0755 c23f
00000320: 778a 283f 7c0f a13f 292b ef3e c72b e33e
00000330: 8575 68be 83f9 09bf 1b31 8bbe 49a3 713f
00000340: a042 ebbe 7dae 583f 2047 563f 2a45 2a3f
00000350: 151b 4e3f 3c9e 1ebf 2dd5 82bf 1ee4 03bd
00000360: dc26 fdbe e518 19bf d9a4 473f b904 03bc
00000370: ba59 ae3e 39ba ec3e 4e26 aa3e 56cc 56bf
00000380: 0e69 e2be ac8b 1fbf 0c9b 1b3f 16a7 383f
00000390: 9987 d6bd 7f77 eabe 9998 74bf 2f61 5939
000003a0: a5b3 83bf 2a7e b83c 6013 30bf 0d32 403f
000003b0: 9501 0abe e227 e4be d358 583f 79b5 b1be
000003c0: c2b5 163f e948 3bbf f776 813c 4fd0 5a3f
000003d0: 0898 d23a 1a43 43bf 3b64 65bf 13ab 3439
000003e0: 19f2 6d3f 2b19 163f a60f f93e 4c8f 493f
000003f0: 3983 79b9 be84 fdbe 0b71 b13e 4681 4dbf

linear1.bias f4 [25]
-0.016986948 -0.014178456 -0.017756697 -0.00845196 -0.01396074 -0.00810969 -0.007132695 -0.0062529393
-0.0020383284 0.0010979839 0.0054391003 0.0050643557 0.010247954 0.011019462 0.0039892364 0.00668497
-0.0011501029 -7.2863215e-05 0.008614682 0.016863331 0.015074638 0.012755789 0.008552722 0.010770655
0.008889523
00000000: 3628 8bbc c14c 68bc 7e76 91bc 177a 0abc
00000010: 96bb 64bc 81de 04bc 62b9 e9bb 75e5 ccbb
00000020: 7a95 05bb 3aea 8f3a 7b3a b23b e5f2 a53b
00000030: 09e7 273c f98a 343c 24b8 823b 980d db3b
00000040: 0dbf 96ba 24ce 98b8 9824 0d3c f824 8a3c
00000050: 9dfb 763c a8fd 503c b720 0c3c 6777 303c
00000060: 5da5 113c

linear2.weight f4 [25, 200]
-0.005488649 -0.06754685 0.06458918 0.029124573 -0.0138918385 -0.021309927 0.006874688 0.000915952
0.039368853 -0.0056192353 -0.017253462 -0.006299585 -0.028760478 -0.033616733 0.038864374 -0.02215461
-0.026553385 0.03689506 -0.03735871 -0.013277177 -0.019814018 -0.032641076 -0.06907617 0.056957893
-0.04516007 0.06793443 0.06031052 0.051384196 0.046317525 0.0703839 0.008519053 0.050960705
0.032078534 0.041868225 0.0075314716 -0.05132071 -0.056472935 0.00251206 -0.06550235 0.014842249
0.005389042 -0.040140223 0.014552116 -0.021369793 -0.022808813 -0.054384798 0.030494325 -0.07049588
-0.0054095164 0.015074283 0.053071745 -0.04185736 -0.0039613917 -0.03549043 0.04459673 0.0057749897
-0.025853332 -0.002729863 -0.05158718 0.008611366 0.04203765 0.025982521 -0.0060375556 0.0029265657
-0.018527586 0.020575412 -0.060824633 0.04659524 0.0046634823 0.06026005 -0.045428127 -0.034459163
-0.023840342 0.022557653 -0.04172497 0.056955703 0.03506457 -0.059700128 0.037648045 0.01587335
0.022955835 -0.020810455 -0.045962095 -0.043817908 -0.044327796 0.05403991 -0.06732014 -0.013086326
0.042809762 -0.06392108 0.06974294 -0.015245881 0.06405146 -0.054614574 0.037700124 -0.067160726
0.06736592 -0.057828486 0.039826944 0.04641667 0.056549393 0.01875057 -0.02575111 0.038912386
-0.06886674 0.06907631 -0.043023802 0.007918641 0.051625624 0.039161153 -0.040330987 -0.028731845
-0.037008163 -0.025529765 0.019189522 0.052722163 0.049923576 0.046348445 -0.059436873 0.024581432
0.00399369 -0.06639801 -0.019901894 0.06219525 -0.04533858 0.0040498897 -0.04541208 0.06542965
-0.027185999 -0.006606452 -0.0033560097 0.03988096 0.04772941 -0.008885298 -0.0076182038 -0.05266844
0.034239493 -0.02847737 -0.02364865 -0.053514287 0.03874091 0.0409353 0.021553963 -0.051132593
-0.052911494 0.047109753 -0.058016665 -0.037243966 0.0026650354 0.042582378 -0.025783218 0.021037735
-0.006201774 0.042227574 0.017837025 -0.016195383 0.06730417 -0.010242049 -0.01153535 -0.046587307
-0.04162734 0.06806656 -0.06486139 -0.057060394 0.032516457 -0.022374786 0.014411621 -0.027439833
-0.051081993 -0.022025976 -0.022125594 -0.0682168 0.008305587 -0.029883433 -0.013813842 0.0432527
-0.04802666 0.0020081475 0.018552579 -0.03771027 0.04349479 0.05189418 -0.027818836 0.011996865
-0.058306653 0.05947829 -0.06969831 0.0075719953 -0.046295036 0.070238866 0.015759178 -0.06095674
0.058897294 -0.036549352 -0.03809078 -0.04439778 -0.036742505 -0.015563145 -0.035166893 -0.06102724
0.041933164 -0.06669213 -0.05472137 -0.034568146 -0.0026579425 -0.0035386086 -0.009739455 0.01701513
-0.057290964 -0.034921683 -0.053043857 -0.01001098 -0.06017241 0.048052385 -0.058478154 0.047371864
-0.0050797835 0.006794393 -0.018345185 -0.0036140978 -0.046082802 -0.053969767 0.028769702 -0.018673476
-0.027306162 0.01156386 -0.041860707 0.044538893 -0.031867992 0.06036388 -0.058403026 0.028039344
-0.020663343 -0.03141525 -0.038361028 -0.06653174 0.009898789 -0.027104892 0.02393309 -0.04360406
0.015919238 0.038271017 0.046519376 0.057641916 0.062687926 0.02718746 0.03110572 0.05448579
0.027412057 -0.068632916 -0.03691453 0.016029209 0.03937213 0.059446327 -0.03159791 0.06408312
00000000: 20da b3bb 0156 8abd 5547 843d a896 ee3c
00000010: 989a 63bc 2892 aebc 1045 e13b 801c 703a
00000020: 3c41 213d 9021 b8bb 2257 8dbc c06c cebb
00000030: 189b ebbc b3b1 09bd 4030 1f3d 967d b5bc
00000040: 7c86 d9bc 461f 173d 7205 19bd 8488 59bc
00000050: 0251 a2bc a6b2 05bd cf77 8dbd ae4c 693d
00000060: c4f9 38bd 3521 8b3d 2a08 773d 3c78 523d
00000070: 72b7 3d3d 6f25 903d 8093 0b3c 2cbc 503d
00000080: c864 033d 047e 2b3d 90ca f63b aa35 52bd
00000090: 2a50 67bd 60a1 243b 1926 86bd e82c 733c
000000a0: 9096 b03b 136a 24bd 006c 6e3c b40f afbc
000000b0: 8cd9 babc 98c2 5ebd 3ccf f93c 2560 90bd
000000c0: 5042 b1bb 20fa 763c c261 593d a072 2bbd
000000d0: 90ce 81bb 6a5e 11bd 10ab 363d 203c bd3b
000000e0: 5eca d3bc 80e7 32bb 144d 53bd b016 0d3c
000000f0: ac2f 2c3d 4cd9 d43c b0d6 c5bb a0cb 3f3b
00000100: 2ac7 97bc c48d a83c 4023 79bd a6da 3e3d
00000110: 20d0 983b 3ed3 763d d812 3abd 0d25 0dbd
00000120: d24c c3bc d4ca b83c cde7 2abd 624a 693d
00000130: de9f 0f3d 1f88 74bd d634 1a3d d408 823c
00000140: e00d bc3c b07a aabc c042 3cbd 687a 33bd
00000150: 1091 35bd f458 5d3d 24df 89bd 0868 56bc
00000160: 4a59 2f3d 0ee9 82bd 63d5 8e3d dcc9 79bc
00000170: 692d 833d 88b3 5fbd 726b 1a3d 908b 89bd
00000180: 25f7 893d 90dd 6cbd 9421 233d 681f 3e3d
00000190: 56a0 673d cc9a 993c fef3 d2bc 9862 1f3d
000001a0: 010a 8dbd e177 8d3d ba39 30bd 30bd 013c
000001b0: 6475 533d 7267 203d 1b32 25bd 0c5f ebbc
000001c0: df95 17bd cc23 d1bc 5833 9d3c 32f3 573d
000001d0: aa7c 4c3d ded7 3d3d 1474 73bd 005f c93c
000001e0: 80dd 823b aefb 87bd 4c09 a3bc 72c0 7e3d
000001f0: f2b4 39bd f0b4 843b 0402 3abd fbff 853d
00000200: 2cb5 debc f07a d8bb 80f0 5bbb 385a 233d
00000210: ea7f 433d a493 11bc 20a2 f9bb ddba 57bd
00000220: b63e 0c3d 6049 e9bc d0ba c1bc cc31 5bbd
00000230: caae 1e3d c6ab 273d f091 b03c 6970 51bd
00000240: b9b9 58bd 28f6 403d e2a2 6dbd 218d 18bd
00000250: e0a7 2e3b dc6a 2e3d 5437 d3bc 5457 ac3c
00000260: 4038 cbbb d2f6 2c3d f41e 923c 2eac 84bc
00000270: c5d6 893d 44ce 27bc c4fe 3cbc 55d2 3ebd
00000280: 6e81 2abd 7b66 8b3d 0cd6 84bd 29b8 69bd
00000290: fa2f 053d 544b b7bc b81e 6c3c 80c9 e0bc
000002a0: 5a3b 51bd d26f b4bc bc40 b5bc 40b5 8bbd
000002b0: 2814 083c 1ace f4bc 7453 62bc be29 313d
000002c0: 9ab7 44bd 209b 033b 94fb 973c 1676 1abd
000002d0: 9827 323d fe8e 543d 54e4 e3bc 808e 443c
000002e0: f5d2 6ebd 829f 733d fdbd 8ebd 801e f83b
000002f0: dd9f 3dbd 65d9 8f3d 6419 813c c6ad 79bd
00000300: 4a3e 713d c6b4 15bd 1405 1cbd 72da 35bd
00000310: 4f7f 16bd 90fc 7ebc 290b 10bd b3f7 79bd
00000320: 1cc2 2b3d e295 88bd 8423 60bd 5497 0dbd
00000330: e030 2ebb 00e8 67bb 3c92 1fbc 5063 8b3c
00000340: eea9 6abd 0a0a 0fbd 8444 59bd 1805 24bc
00000350: 5877 76bd 94d2 443d ca86 6fbd 0009 423d
00000360: 5074 a6bb 80a3 de3b a448 96bc 80da 6cbb
00000370: 52c1 3cbd 670f 5dbd 70ae eb3c 1ef9 98bc
00000380: 2cb1 dfbc 5876 3d3c 2276 2bbd 6a6e 363d
00000390: 0388 02bd 1e40 773d 0338 6fbd c4b2 e53c
000003a0: 2c46 a9bc 47ad 00bd 7420 1dbd cb41 88bd
000003b0: 882e 223c 140b debc 540f c43c 2c9a 32bd
000003c0: 1069 823c 12c2 1c3d 1a8b 3e3d ee19 6c3d
000003d0: 8762 803d 3cb8 de3c 6cd1 fe3c 7e2c 5f3d
000003e0: 408f e03c 6a8f 8cbd b133 17bd b04f 833c
000003f0: ac44 213d fe7d 733d cf6c 01bd 033e 833d

linear2.bias f4 [25]
-0.044626907 -0.021002937 -0.05206573 -0.022177354 0.043137223 0.044128053 -0.062737465 -0.03150902
0.0366302 -0.023447052 -0.06955077 0.023546629 0.06543449 -0.010720734 -0.06600124 0.03032814
-0.039828055 0.0420184 -0.06574497 0.064652406 0.060556583 0.03900058 -0.03549369 -0.02298621
-0.009985313
00000000: b4ca 36bd 5a0e acbc e042 55bd 48ad b5bc
00000010: a8b0 303d 9ebf 343d 807c 80bd 9a0f 01bd
00000020: 8c09 163d 0814 c0bc a270 8ebd dce4 c03c
00000030: 8502 863d 04a6 2fbc a82b 87bd b872 f83c
00000040: be22 23bd 7c1b 2c3d 4da5 86bd 7b68 843d
00000050: 2e0a 783d 12bf 1f3d d561 11bd 944d bcbc
00000060: 7099 23bc
