model/lstm_method_1693447870.0873165.pth (torch, 12579 bytes, 5 tensors)

lstm.weight_ih_l0 f4 [64, 25]
-0.28556004 0.027647879 -0.22584389 -0.039483942 -0.3078077 -0.16441794 0.15727998 -0.04396066
0.16058633 -0.11791061 -0.28345388 -0.053476434 -0.079450056 -0.070821874 -0.30578995 0.16512477
0.1816277 0.18608718 0.12920994 -0.29951823 -0.15955038 -0.2840809 -0.09647683 -0.2550602
-0.308587 0.2270725 0.04107776 0.0914986 -0.10733612 0.22346677 -0.10363164 -0.047491003
-0.08447302 -0.06767924 -0.029056266 -0.10455288 0.07905232 0.2445123 0.08554849 0.30156526
0.013665822 0.11467327 -0.002424333 0.26068065 0.16973215 -0.049005527 0.33609486 0.11384204
0.29722872 -0.028533617 -0.17897011 0.17118733 -0.05137692 0.06696427 0.19270578 -0.18002535
-0.006782806 0.08976179 0.1682786 -0.079415426 0.043870397 0.19546007 0.07306277 0.08495442
0.13264398 0.28511515 0.1917988 0.10395757 0.06507143 0.07814514 0.27659503 0.219289
-0.039379604 0.21857186 -0.0416518 0.14371789 0.0066107213 0.12272018 -0.12437907 -0.0064410865
0.14297482 0.17748892 0.19169071 0.18881351 -0.085680306 -0.23991379 -0.11624256 0.033813685
0.12718135 0.2020135 0.17144775 0.06743941 0.2212281 0.062837094 0.0027658343 -0.08501464
-0.24885523 0.13558426 -0.050974607 -0.14109015 0.039859354 0.05482918 0.24807136 0.23986922
-0.4224426 -0.25031605 0.045835394 -0.22783346 -0.43972766 -0.25631925 -0.056394402 0.08454741
0.008233946 -0.17981507 0.32544202 -0.3106838 0.0076417746 -0.12245024 0.19646937 0.17632082
-0.02542128 0.2012495 -0.110675134 -0.07457854 -0.2893629 0.13886291 -0.03948006 -0.06380259
0.1280594 0.03264198 0.2024266 -0.029118782 -0.17869052 0.09991154 0.060533237 0.19376771
0.28795764 -0.1050775 0.22891214 0.2864003 0.3046762 0.20247845 0.26501653 -0.027378418
0.18714479 -0.07936581 0.2121016 -0.109612316 -0.0798168 0.24491921 -0.22622661 0.22017531
0.04431555 0.012595239 -0.28614038 -0.10512096 -0.043042667 -0.17278235 -0.2659227 -0.18010354
-0.16156426 -0.1872441 -0.03941347 -0.106767654 0.22666223 -0.045296084 -0.2946414 0.18119033
-0.047932453 -0.28545612 0.120702684 -0.039293114 0.03432267 0.06982697 -0.15735513 -0.22777759
0.060408503 -0.031606812 0.17878623 0.11370402 -0.23381914 0.0790038 -0.024661204 -0.110501304
-0.057819977 -0.10920758 -0.25558606 -0.24056838 -0.18473482 0.2620568 -0.07102512 -0.08661951
-0.13592643 -0.23748882 -0.19430362 -0.25969136 0.10878186 -0.25248715 -0.08589022 -0.042949896
0.0113949375 0.15535685 0.115442954 -0.18814369 0.14661849 -0.044599965 0.058622815 0.15034084
-0.017035225 -0.22631653 0.20974731 -0.097064584 0.096522175 0.22845192 0.124326766 -0.10345964
-0.02618675 -0.10376429 0.19065519 0.13257514 -0.06967359 0.22681957 -0.19789623 0.13266988
0.049485147 0.0021074312 -0.25989035 -0.17298427 -0.04913657 -0.12124103 0.11389115 0.0405825
-0.091068864 -0.058461662 -0.09194913 -0.032275394 -0.049285945 -0.27574712 -0.05376986 0.03511113
-0.046311125 -0.08275657 -0.25838172 0.17310664 -0.08751221 -0.24250571 0.07138392 -0.15706325
-0.23295997 -0.2560719 -0.08930278 0.2862819 0.1732964 0.24315375 -0.21188544 0.047934126
00000000: ed34 92be ce7d e23c 9f43 67be eab9 21bd
00000010: f998 9dbe 2d5d 28be 010e 213e 1810 34bd
00000020: be70 243e 1e7b f1bd de20 91be 1b0a 5bbd
00000030: b6b6 a2bd 0f0b 91bd 8090 9cbe 7816 293e
00000040: 9dfc 393e a38d 3e3e 9c4f 043e 745a 99be
00000050: 2d61 23be 0d73 91be a595 c5bd 4097 82be
00000060: 1eff 9dbe b285 683e 2741 283d 9e63 bb3d
00000070: 0ad3 dbbd 79d4 643e d33c d4bd ed85 42bd
00000080: 3100 adbd 6a9b 8abd 6807 eebc d21f d6bd
00000090: 2fe6 a13d 6f61 7a3e 0c34 af3d c366 9a3e
000000a0: 9de6 5f3c d2d9 ea3d 8fe1 1ebb ef77 853e
000000b0: 44ce 2d3e 05ba 48bd a014 ac3e 0426 e93d
000000c0: 5d2e 983e 55bf e9bc f143 37be bb4b 2f3e
000000d0: 9b70 52bd 9024 893d aa54 453e 9158 38be
000000e0: 4d42 debb 08d5 b73d 3a51 2c3e 8ea4 a2bd
000000f0: 72b1 333d af26 483e efa1 953d 95fc ad3d
00000100: d3d3 073e 9dfa 913e e866 443e b5e7 d43d
00000110: 2b44 853d 8f0a a03d dd9d 8d3e 4c8d 603e
00000120: 824c 21bd 4dd1 5f3e 149b 2abd c82a 133e
00000130: c09e d83b b854 fb3d 74ba febd c00f d3bb
00000140: fe67 123e a8bf 353e 924a 443e 5458 413e
00000150: 2879 afbd f6ab 75be 9410 eebd 3880 0a3d
00000160: d43b 023e a0dc 4e3e 0090 2f3e ac1d 8a3d
00000170: 9e89 623e bcb0 803d 0043 353b 281c aebd
00000180: e8d3 7ebe 9ad6 0a3e c0ca 50bd f079 10be
00000190: 9043 233d 9094 603d 6b06 7e3e 47a0 753e
000001a0: 654a d8be 6d29 80be e5bd 3b3d 2d4d 69be
000001b0: fc23 e1be 473c 83be d1fd 66bd 3127 ad3d
000001c0: ace7 063c 7121 38be 56a0 a63e f211 9fbe
000001d0: da67 fa3b 31c7 fabd 442f 493e 728d 343e
000001e0: 4a40 d0bc 5914 4e3e a5a9 e2bd a2bc 98bd
000001f0: 6027 94be 1432 0e3e d8b5 21bd efaa 82bd
00000200: 0122 033e 99b3 053d eb48 4f3e 838a eebc
00000210: a6fa 36be 6c9e cc3d b3f1 773d 0b6b 463e
00000220: 2f6f 933e df32 d7bd f267 6a3e 0fa3 923e
00000230: 85fe 9b3e 8356 4f3e 3fb0 873e b448 e0bc
00000240: e2a2 3f3e 8b8a a2bd 2931 593e 6c7c e0bd
00000250: fe76 a3bd 1acc 7a3e f3a7 67be a375 613e
00000260: 3984 353d 435c 4e3c fe80 92be a849 d7bd
00000270: 824d 30bd dbed 30be 0527 88be 106d 38be
00000280: 1a71 25be ebbc 3fbe 0570 21bd 00a9 dabd
00000290: 251a 683e 6388 39bd 3ddb 96be f589 393e
000002a0: d254 44bd 4e27 92be f832 f73d d1f1 20bd
000002b0: ee95 0c3d 7101 8f3d b421 21be 873e 69be
000002c0: e86e 773d 2576 01bd bd13 373e a7dd e83d
000002d0: 496e 6fbe bfcc a13d 4b06 cabc 824e e2bd
000002e0: a4d4 6cbd 39a8 dfbd 2ddc 82be 8f57 76be
000002f0: 202b 3dbe 4f2c 863e 9e75 91bd 9265 b1bd
00000300: 4c30 0bbe 4530 73be 87f7 46be 44f6 84be
00000310: 06c9 de3d ff45 81be 36e7 afbd 3bec 2fbd
00000320: d5b1 3a3c de15 1f3e 5b6d ec3d bda8 40be
00000330: 2823 163e 74ae 36bd 7a1e 703d f3f2 193e
00000340: 758d 8bbc 85bf 67be 00c8 563e ccc9 c6bd
00000350: 6bad c53d 4def 693e 089f fe3d a6e2 d3bd
00000360: 9885 d6bc 5f82 d4bd 1d3b 433e c7c1 073e
00000370: 07b1 8ebd 6443 683e 4fa5 4abe 9dda 073e
00000380: f0b0 4a3d d41c 0a3b 5910 85be ca22 31be
00000390: 6e43 49bd 384d f8bd c33f e93d d639 263d
000003a0: 5082 babd 7f75 6fbd d34f bcbd 3433 04bd
000003b0: 0fe0 49bd ba2e 8dbe c93d 5cbd b0d0 0f3d
000003c0: bcb0 3dbd 477c a9bd 9c4a 84be de42 313e
000003d0: 9a39 b3bd 6b53 78be bc31 923d 30d5 20be
000003e0: 0f8d 6ebe db1b 83be 60e4 b6bd 8b93 923e
000003f0: 9d74 313e 4cfd 783e 7ff8 58be 9356 443d

lstm.weight_hh_l0 f4 [64, 16]
0.03614169 0.23725885 0.16280474 -0.059456885 0.024442961 0.13199177 0.24383906 0.015827477
0.08058382 -0.10741708 0.12652324 -0.29477987 0.010073163 -0.24725811 -0.077080436 0.0331656
0.2418733 -0.002292721 0.064589016 0.18821198 0.02230217 -0.028233694 -0.09917799 -0.23145643
-0.084708735 0.24638577 0.09744957 -0.2124852 -0.0119368825 -0.1295934 0.17545636 -0.1197325
0.11424804 -0.24057159 -0.21742989 0.09509474 -0.03315818 -0.040804453 -0.15030795 -0.10429436
0.07130697 0.17085494 0.20938763 -0.23102544 0.12102144 -0.1496172 0.2889593 -0.08713906
0.053001553 -0.2151517 -0.22140789 0.02104494 0.035753667 -0.007539332 -0.15872663 -0.1901204
-0.19056106 -0.015939116 -0.13074097 0.12396249 0.036136657 0.009882182 0.00042518973 -0.21147391
-0.012996714 -0.3849512 -0.038050693 0.04502362 0.13640295 0.04829544 -0.060112894 0.00597053
-0.1474278 0.15627836 -0.13145322 0.2422855 -0.103221886 0.03483031 -0.12164879 0.23486973
0.19040214 0.08637488 -0.16871095 -0.08442241 -0.005247994 0.026140584 0.14176354 0.20993848
-0.071924135 0.15074341 0.25313842 -0.06421654 0.16368438 -0.1708256 0.1948606 0.054555573
-0.021675775 -0.060572535 -0.20143573 -0.026609063 -0.06140804 -0.010983553 -0.09302309 0.13769045
0.01594072 0.12797531 -0.1068154 -0.22509564 -0.18587872 0.056395896 0.21065015 -0.0813165
0.117874436 -0.1998764 0.12980409 -0.22221321 0.004771507 -0.15731737 -0.1546419 0.13648728
-0.0083817 0.24849024 -0.23095706 0.16439912 -0.16170596 -0.2568563 0.07776952 0.22050264
-0.1908763 -0.21944612 0.20938703 0.15233493 -0.18504205 0.15269935 -0.020258069 0.17358986
0.097417355 -0.22395185 -0.05708487 -0.06813456 -0.048018128 -0.09878032 -0.08512682 0.18569183
0.18646091 -0.1236009 -0.035482064 0.0915336 0.16955604 0.04748067 0.042137094 0.23439015
0.20359491 -0.24081166 -0.122111276 -0.1896365 0.13024363 0.14797801 -0.072746515 -0.102045804
0.08655862 -0.009357906 0.13678548 0.117943734 -0.24577175 0.16960174 -0.13583525 0.013736418
-0.24085 0.099199295 0.17503853 -0.033031117 0.13152526 -0.11633598 0.13085437 -0.02893316
0.23485138 0.19775087 0.17816316 -0.05846256 -0.11431143 0.17239544 0.17070632 0.1775896
0.2877704 -0.09730511 0.028051732 -0.13685912 -0.19096045 -0.09773395 -0.104702525 -0.07349751
0.14956132 -0.16808209 0.21124505 0.03838271 -0.15037741 -0.0008628744 -0.10138709 0.17944774
-0.11856394 0.07721236 0.17390075 0.12892336 0.25338516 0.26234138 0.17247349 0.084499344
-0.057388883 -0.022679985 -0.13639592 -0.1214996 0.06964751 0.24242906 -0.018930722 -0.15556982
0.018963126 -0.12746124 -0.07265387 0.22489306 -0.25292224 -0.18170151 0.17656238 0.19218414
0.0010320246 0.03080371 0.10423434 -0.15218806 -0.20454466 0.24311325 -0.23856434 -0.026274681
0.0127027035 0.0013167858 0.2055386 -0.15788892 0.15636796 -0.17161497 0.040661424 -0.17525765
-0.01184389 -0.23617882 -0.23568916 -0.2453191 0.0054311454 0.23237666 -0.10406017 -0.14199787
0.14002298 -0.16501656 -0.047489524 -0.22774324 -0.027692884 -0.17563462 0.19592062 -0.17970014
00000000: 4f09 143d fcf3 723e 49b6 263e 1089 73bd
00000010: 9b3c c83c da28 073e f2b0 793e a0a8 813c
00000020: 2109 a53d 7cfd dbbd 4f8f 013e 63ed 96be
00000030: e809 253c 3b31 7dbe 59dc 9dbd a7d8 073d
00000040: a2ad 773e 7a41 16bb 3f47 843d a4ba 403e
00000050: 0ab3 b63c 594a e7bc d41d cbbd ea02 6dbe
00000060: c67b adbd 8d4c 7c3e a493 c73d b895 59be
00000070: ea92 43bc 22b4 04be d5aa 333e 5036 f5bd
00000080: e0fa e93d 6658 76be f1a5 5ebe 08c1 c23d
00000090: dfd0 07bd 9222 27bd 54ea 19be 4898 d5bd
000000a0: 6409 923d 99f4 2e3e b669 563e ef91 6cbe
000000b0: 17da f73d 4035 19be 79f2 933e f775 b2bd
000000c0: 2818 593d ba50 5cbe c0b8 62be 7066 ac3c
000000d0: 7072 123d 800c f7bb 3c89 22be ecae 42be
000000e0: 7022 43be c092 82bc f6e0 05be 0ce0 fd3d
000000f0: 0804 143d e0e8 213c 00ec de39 9e8c 58be
00000100: 2bf0 54bc 5318 c5be 0bdb 1bbd b06a 383d
00000110: 37ad 0b3e 70d1 453d f038 76bd 70a4 c33b
00000120: 50f7 16be 6f07 203e ac9b 06be b119 783e
00000130: ff65 d3bd 3aaa 0e3d 0023 f9bd b181 703e
00000140: c7f8 423e 50e5 b03d 90c2 2cbe a8e5 acbd
00000150: 5df7 abbb c724 d63c 762a 113e 1dfa 563e
00000160: f64c 93bd 7b5c 1a3e 5c9b 813e f683 83bd
00000170: e19c 273e e8ec 2ebe 8a89 473e aa75 5f3d
00000180: 6591 b1bc e81a 78bd 2b45 4ebe 40fb d9bc
00000190: ff86 7bbd 5cf4 33bc e482 bebd bafe 0c3e
000001a0: 1d96 823c f60b 033e 08c2 dabd 797f 66be
000001b0: fe56 3ebe 62ff 663d acb4 573e 4489 a6bd
000001c0: 2768 f13d 66ac 4cbe 5deb 043e dc8b 63be
000001d0: 4d5a 9c3b ce17 21be 725a 1ebe 52c3 0b3e
000001e0: 6653 09bc 3a74 7e3e 0280 6cbe 3e58 283e
000001f0: 3f96 25be ab82 83be a045 9f3d 72cb 613e
00000200: 1475 43be 7cb6 60be 8e69 563e b0fd 1b3e
00000210: aa7b 3dbe 385d 1c3e 40f4 a5bc 8ac1 313e
00000220: c082 c73d a253 65be d3d1 69bd 228a 8bbd
00000230: a8ae 44bd 564d cabd f856 aebd 0026 3e3e
00000240: 9cef 3e3e 7822 fdbd a455 11bd f875 bb3d
00000250: 19a0 2d3e 177b 423d f297 2c3d f903 703e
00000260: 2f7b 503e 5597 76be 7a15 fabd 1230 42be
00000270: 965e 053e 8c87 173e 20fc 94bd 64fd d0bd
00000280: a545 b13d e751 19bc 7e11 0c3e 7c8c f13d
00000290: 97ab 7bbe 14ac 2d3e 6518 0bbe b70e 613c
000002a0: 62a1 76be 0029 cb3d 4d3d 333e a34b 07bd
000002b0: 8fae 063e 8f41 eebd b0fe 053e 3c05 edbc
000002c0: e17c 703e 347f 4a3e 6770 363e 7076 6fbd
000002d0: 1c1c eabd 6e88 303e a3cd 2e3e 0cda 353e
000002e0: a456 933e e747 c7bd bfcc e53c cc24 0cbe
000002f0: 238b 43be bd28 c8bd 476e d6bd dd85 96bd
00000300: 9a26 193e b61d 2cbe 9f50 583e 3037 1d3d
00000310: 89fc 19be 8532 62ba 09a4 cfbd 26c1 373e
00000320: a7d1 f2bd 8421 9e3d 0a13 323e 7c04 043e
00000330: b3bb 813e 9c51 863e e49c 303e fe0d ad3d
00000340: 9b10 6bbd 60cb b9bc 5fab 0bbe c8d4 f8bd
00000350: 5ba3 8e3d 533f 783e 9a14 9bbc b24d 1fbe
00000360: 8f58 9b3c 3385 02be 8dcb 94bd 5e4a 663e
00000370: 067f 81be f60f 3abe c5cc 343e ebcb 443e
00000380: 0045 873a 1058 fc3c d078 d53d 30d7 1bbe
00000390: 2874 51be aef2 783e 364a 74be 003e d7bc
000003a0: 001f 503c 0098 ac3a b678 523e a2ad 21be
000003b0: ec1e 203e d6bb 2fbe 988c 263d be76 33be
000003c0: e00c 42bc dcd8 71be 8058 71be ee34 7bbe
000003d0: c0f7 b13b 26f4 6d3e 801d d5bd e467 11be
000003e0: 2f62 0f3e 1afa 28be 6084 42bd 8635 69be
000003f0: 30dc e2bc 90d9 33be 6a9f 483e 5003 38be

lstm.bias_ih_l0 f4 [64]
0.106305055 0.02217933 -0.1698463 -0.0441947 -0.22325562 0.20690745 0.0013938743 0.14666878
0.14649552 -0.10608006 -0.17649508 0.15812393 -0.09477337 -0.24291474 -0.11330429 -0.13538651
0.027892867 0.28818232 -0.105950944 -0.047208615 -0.27305362 0.15967286 0.22345969 0.07462189
-0.1474994 0.13993555 -0.06063947 -0.1341329 0.14158213 -0.13718003 -0.046649605 -0.016153008
0.06351216 0.1420215 0.16158552 -0.042376906 -0.11017632 -0.032448594 -0.014580931 0.03246292
0.23886037 -0.01734209 0.2257972 0.019993894 -0.1786364 0.1918169 0.14585225 0.20212922
-0.037087437 0.074093916 0.3400084 0.15169588 -0.44414756 -0.11432471 -0.17180087 0.18417035
0.07812966 -0.049045675 -0.037702758 0.018675117 0.120303154 -0.26851016 -0.10687639 -0.04349577
00000000: 77b6 d93d 6db1 b53c 30ec 2dbe 8005 35bd
00000010: 1f9d 64be 8cdf 533e a9b2 b63a 5730 163e
00000020: ec02 163e 8140 d9bd 20bb 34be 3deb 213e
00000030: 8a18 c2bd a4be 78be 140c e8bd c3a2 0abe
00000040: 957f e43c a28c 933e cffc d8bd d25d 41bd
00000050: afcd 8bbe 4881 233e 9ed2 643e 5dd3 983d
00000060: 150a 17be 444b 0f3e 1861 78bd 235a 09be
00000070: e8fa 103e ec78 0cbe a813 3fbd 5053 84bc
00000080: aa12 823d 166e 113e ad76 253e 6893 2dbd
00000090: 1fa4 e1bd d1e8 04bd dbe4 6ebc d7f7 043d
000000a0: d097 743e 0011 8ebc 6237 673e 3cca a33c
000000b0: 76ec 36be a66b 443e 4b5a 153e f6fa 4e3e
000000c0: ffe8 17bd 8dbe 973d 9515 ae3e 2a56 1b3e
000000d0: 4f67 e3be 1323 eabd 91ec 2fbe 2797 3c3e
000000e0: 7102 a03d 1ee4 48bd 356e 1abd 8ffc 983c
000000f0: 8061 f63d 2a7a 89be 02e2 dabd 9f28 32bd

lstm.bias_hh_l0 f4 [64]
0.04670176 -0.11443664 0.18261752 -0.1035015 -0.29418868 0.13646552 -0.09155196 -0.016521826
-0.2481373 -0.16351266 -0.10355209 0.025599847 0.05119198 -0.33282664 -0.24589181 0.0059910854
0.07428914 0.21194714 -0.18328734 0.11261586 0.11277621 -0.17519772 0.116212845 -0.0790988
-0.085448824 -0.2058346 0.29376653 0.16787843 0.012563601 0.13245046 0.12932774 -0.22252169
0.02560891 -0.21144783 0.27189937 -0.18521115 -0.07609702 0.015170796 0.24706195 -0.16446006
0.19538814 -0.07328537 0.09032105 -0.1759033 0.08207465 0.032290608 -0.23843957 -0.0016201868
-0.05260026 -0.1133768 0.17442898 -0.25113434 -0.15853554 0.22428444 -0.23169088 0.17331977
-0.28955173 -0.24445145 0.30209926 -0.042349562 0.19832954 -0.1723641 0.13510227 0.14626038
00000000: 584a 3f3d c25d eabd 1600 3b3e 98f8 d3bd
00000010: e69f 96be 9ebd 0b3e 987f bbbd c858 87bc
00000020: b417 7ebe dd6f 27be 1e13 d4bd c5b6 d13c
00000030: aeae 513d 4168 aabe 10cb 7bbe de50 c43b
00000040: e824 983d ac08 593e adaf 3bbe 25a3 e63d
00000050: 37f7 e63d 0867 33be 0001 ee3d 8dfe a1bd
00000060: cbff aebd 4ec6 52be 9168 963e 53e8 2b3e
00000070: 90d7 4d3c 18a1 073e 7e6e 043e badc 63be
00000080: c7c9 d13c c885 58be 6536 8b3e fea7 3dbe
00000090: c1d8 9bbd ee8e 783c cffd 7c3e 3868 28be
000000a0: d413 483e a416 96bd 3efa b83d ff1f 34be
000000b0: c116 a83d 2843 043d 8129 74be 735c d4ba
000000c0: 5f73 57bd 1932 e8bd 839d 323e ae94 80be
000000d0: 2457 22be d2aa 653e 6040 6dbe bd7a 313e
000000e0: 2040 94be 7b51 7abe c1ac 9a3e bc76 2dbd
000000f0: e616 4b3e 3780 30be 4058 0a3e 48c5 153e

linear.weight f4 [1, 16]
-0.13046703 -1.5694788 1.547612 0.08317006 0.039814062 -1.3974305 -0.12376701 -0.15539068
0.03801261 -0.11168213 1.4315562 -0.28164303 1.3833861 -0.01846962 1.4449964 -0.04760296
00000000: 2699 05be aee4 c8bf 2618 c63f 1055 aa3d
00000010: 1214 233d 01df b2bf 8f79 fdbd bc1e 1fbe
00000020: 1cb3 1b3d 9ab9 e4bd 3c3d b73f 8433 90be
00000030: cc12 b13f 9a4d 97bc a4f5 b83f 52fb 42bd
