model/lstm_method_1695237312.7526023.pth (torch, 730139 bytes, 6 tensors)

lstm.weight_ih_l0 f4 [800, 25]
00000000: f409 903d dd5c 0abc 96e8 3e3d 39c2 8f3d
00000010: 1d79 ebbd e078 6a3d 091d b03c 29e6 de3c
00000020: 88b8 05bc 46d2 683d 5d5e 233d 9fec 833b
00000030: fd5e 0ebd af38 113d 0719 b33d 11d2 ae3b
00000040: d03e 9c3c 2ce2 ac3c b88c d1bd 513e b43b
00000050: 6eb1 bf3d 31dc 503d a83a 49bd 22dd e23c
00000060: debe 6cbd 4310 97bc 12c1 14bd 5e3a 83bb
00000070: 52d8 1abd ccff 3dbe 25ab d4bd e755 87bd
00000080: dc60 52bd f339 93bb f6e0 9d3c 2934 483c
00000090: 7765 d63d a490 8b3d 459d 163e 91c9 c73d
000000a0: 9bf6 d13d d1a3 973d 9665 b53d 7300 cebb
000000b0: 3bff 173e cb35 a83d 78a4 033e c6c7 86bc
000000c0: 9978 b03d 8b33 973c 6268 97bc 96cc 0f3c
000000d0: 52f7 553d 19fb 6ebd 6b09 4e3c 399d 483d
000000e0: d7a4 4b3d b46a c33c 687a 453d 561c 013e
000000f0: 9970 cb3d 9cfc 173d 0d1a 2dbd 50fe 8fbc
00000100: b1e9 99bd 2029 483c 5499 b93d f239 933d
00000110: 8fe8 083e 31c3 693d 2efd eb3d 0a6d 5e3d
00000120: 6fb5 103d abcd e2bc 45c3 a3bd 68a7 373e
00000130: 62c7 b43d a616 d63d 5b2e 793e 49ef 07be
00000140: a93e 84bc f11a 8a3d 85f1 aabb 237a 743d
00000150: 0f56 46bd 3cf9 89bc d3e0 7b3d 911d 32bd
00000160: 0f8d dcbb fe6d d6bc 9983 69bd fc7f 283d
00000170: 7b96 c73c 6e1c cdbb 7ba5 38bd 3d94 53bc
00000180: d072 7abd e5bc 8cbd a078 823c 2965 69bc
00000190: 7580 8bbd 5cb8 c4bc af97 4a3d c308 c2bd
000001a0: 0967 76bc 8296 173c bfa5 3b3d 9eab 6f3d
000001b0: be91 bbbd bed9 99bd e7c3 05be 219b c9bd
000001c0: d0c9 dd3c a63e 183d 2ff6 86bd 3fed 6dbd
000001d0: d0cb cdbc 800b 8b3c 5368 89bd 4769 063c
000001e0: 6696 03bc cbe0 c5bb 149b 763b f5a1 9ebd
000001f0: 77b6 84bc 7569 753b e573 05bc af81 1c3b
00000200: 6b55 d0bc 2be3 40bd b37f e9bd 7225 0bbe
00000210: 89c4 f0bc 8dea 3fbd f6ed 88bd e612 dcbc
00000220: c28c b4bd 4d2f e9bd 96e0 9cbd 6907 edbd
00000230: 7a46 96bd 26b4 debc e974 943c 90c7 f6bd
00000240: 81cb 9bbd 5896 58bc 19b0 bfbd 0e2f 21be
00000250: d95b 393d 928d 743b 022d b5bd d095 a8bd
00000260: ca27 a8bd 9461 80bd d0d8 29bd b5df 563d
00000270: 61fd 063c db72 2cbc 58ad 133d 9223 d03d
00000280: 82b7 a23d 0a0a 503d 37eb 97bc 89b0 323d
00000290: 0e64 d43d 5bd3 8b3d b924 bb3d 7b12 41bc
000002a0: 7643 3d3d 2fd2 6c3d f86d 4c3d 8436 b33d
000002b0: fdf5 903d d242 623d 3de2 a2bd 321a a03c
000002c0: a35b 84bc 49f1 493d 4c4c 50bd eb1e 3a3d
000002d0: 524d 293c 7c46 e6bc 193d 8a3d 8cac 2f3c
000002e0: b9c7 1d3d f50f 303d 8697 08ba 68a3 e1bc
000002f0: e7b9 673c 8656 da3b 1df6 80bb 9a23 37bd
00000300: 692c e1bc 09be 7c3c 9058 b7bc a46d 24bd
00000310: 5c5d 893d f9e3 b0bb d0a1 b8bc 128e 2f3d
00000320: 348e a43d a4b3 3bbd ed90 9b3a 9392 b23c
00000330: 6f55 1bbd 3991 dfbd 3aaf 97bd 377e 8638
00000340: d00a c63c c8e9 bf3c c60d 833d cbdc d83c
00000350: 773f 5cbd a612 9fbd c6ef 523d a184 24bc
00000360: 4e9f 2bbd c9b2 85bd e812 723c f707 3b3c
00000370: 069d 5dbd 6e69 80bc 0cf0 fe3b b677 993c
00000380: c638 a13c b6a7 b0bd ec23 7b3b 1517 293d
00000390: 692c 49bd e067 08bd 0e38 f93b 0d96 6fbc
000003a0: a3a6 cfbd 42d9 6f3d a19f 583d 3454 83bd
000003b0: 399b 0abe 1e2a 54bc 016f cabc 0f47 07be
000003c0: c218 aabd e843 eebd ecf0 6fbd 5317 21bd
000003d0: 14e1 25bc c3a8 87bd a9cc dcbb d6e4 0ebd
000003e0: 563c 063d a40e d23d cd94 7f3c a4f9 c43d
000003f0: 68fd d83c 8074 103e 3a27 92bc 93d6 e53c
0.070331484 -0.008444992 0.04660853 0.07019467 -0.1149771 0.05724418 0.02149822 0.027209358
-0.008161671 0.056841157 0.039884914 0.00402601 -0.034758557 0.03545445 0.08745008 0.0053351005
0.01907292 0.02110394 -0.10231918 0.0055005928 0.09360014 0.05099124 -0.049128205 0.027693335
-0.057799213 -0.018440371 -0.03631694 -0.0040047606 -0.037803955 -0.1855461 -0.10384206 -0.066081814
-0.051361904 -0.004492992 0.019272309 0.012219467 0.10468572 0.068146974 0.14708431 0.097552426
0.102521144 0.074042924 0.088572666 -0.0062866746 0.14843456 0.08213385 0.12855709 -0.016452681
0.08616752 0.018457195 -0.01848239 0.008776804 0.052237816 -0.058344934 0.012575488 0.048978064
0.04971775 0.023854591 0.04821244 0.12608466 0.09933586 0.03710614 -0.042261172 -0.01757732
-0.07515276 0.012216836 0.09062448 0.071887866 0.13369964 0.057070915 0.115228996 0.054303207
0.03532928 -0.02768596 -0.07996229 0.17934954 0.08827092 0.104535386 0.2433409 -0.13274874
-0.01614316 0.0674342 -0.0052167797 0.05968679 -0.048421916 -0.016842477 0.061493706 -0.043485228
-0.0067306827 -0.026175495 -0.057010267 0.04113768 0.024363747 -0.0062594926 -0.04507969 -0.012913761
-0.06114465 -0.06871966 0.01592666 -0.01424531 -0.068116106 -0.02401369 0.049461063 -0.094743274
-0.015039214 0.009252192 0.045812365 0.058513276 -0.091586575 -0.07512234 -0.13063012 -0.098440416
0.02707377 0.03716912 -0.065899245 -0.058087584 -0.0251216 0.016973257 -0.067093514 0.008203811
-0.008031463 -0.0060387603 0.0037629055 -0.077457346 -0.016200287 0.003744689 -0.008145307 0.0023881008
-0.025431355 -0.047091644 -0.1140131 -0.13588503 -0.02939059 -0.046854544 -0.066860124 -0.02686448
-0.0881591 -0.11385975 -0.07660024 -0.11573679 -0.07337661 -0.02718551 0.018122153 -0.12049782
-0.07607175 -0.0132194385 -0.0935976 -0.15740606 0.04525361 0.0037315828 -0.08846475 -0.082316995
-0.08210714 -0.062686116 -0.041466534 0.052459437 0.008239121 -0.010525431 0.036053985 0.101630345
0.079451576 0.050790824 -0.018544776 0.04362539 0.103706464 0.06827422 0.09137864 -0.011784191
0.046206914 0.057817634 0.049909562 0.087506324 0.070781685 0.055239506 -0.07953308 0.01954374
-0.016156977 0.049302373 -0.050854012 0.045439642 0.010333376 -0.028109781 0.06749935 0.010722291
0.03852055 0.042983968 -0.0005210567 -0.027543738 0.014143444 0.0066631464 -0.003935589 -0.044711687
-0.027486997 0.015426167 -0.022381097 -0.040143624 0.0670726 -0.00539827 -0.022538096 0.0428601
0.080349356 -0.045825616 0.0011868753 0.021798408 -0.037923273 -0.10916371 -0.07406469 6.413127e-05
0.024175078 0.023426905 0.063991114 0.02647247 -0.053771462 -0.07767229 0.051498197 -0.010041387
-0.04189997 -0.06528241 0.014775015 0.011415473 -0.054104827 -0.015675273 0.0077800807 0.01873384
0.019680392 -0.08625738 0.0038320972 0.04128178 -0.04911462 -0.033302188 0.007605559 -0.014623177
-0.10139205 0.058556803 0.05288661 -0.06412545 -0.13535775 -0.012949495 -0.024711134 -0.132107
-0.083055034 -0.11634046 -0.05857937 -0.039328884 -0.010124464 -0.066239856 -0.0067382646 -0.034886204
0.032772385 0.10256699 0.015599442 0.09617928 0.026488021 0.14106941 -0.01784097 0.028056419

lstm.weight_hh_l0 f4 [800, 200]
00000000: 441b 813d 3d0c 523d 79e7 3d3d e1c3 3c3d
00000010: c29c 253d 05f0 67bd 463c bf3c db68 46bd
00000020: 9fb3 e1bd 257a f33d aae0 b9bd 181b 82bd
00000030: 4e6b 3abd 54a9 0abc 6b7f b4bd 99f5 b3bd
00000040: 4ed2 e93d d098 9e3d efb3 a0bd be80 4abd
00000050: 85ea f63c b488 5b3d d9a8 dd3c 728a b7bc
00000060: 4b9a 9dbc 500e e03c c05b b43d 2169 2d3b
00000070: 2d8d 873d 1561 663d 2be7 d53b ccf8 493d
00000080: 10b1 02be 9c70 7dbd 32ce 913b 4421 d9bb
00000090: 2136 0d3d 5b50 3f3d b1f0 d63c 0fb1 71bd
000000a0: 1bec 0abd c433 35bd b543 903b 4a22 4e3d
000000b0: 5695 aa3c b823 a1ba 4307 d73c 64f5 17bd
000000c0: 80e1 fcbc 2451 273b b05e 1abc c7c5 75b9
000000d0: e738 883c 03ea 92bb 12c1 253d 8b93 d1bb
000000e0: 0c7a cb3b 56bf 44bd 4589 42bc aee5 a6bd
000000f0: 53db 883d 5b47 a7bd b900 943c 70d2 c1bc
00000100: 0ec9 0bbd 750d 7ebd 03ac a0bd 12d7 893c
00000110: cf87 5c3d c61b dc3c 6b4a cf3c 7dac 31bd
00000120: ce97 52bc d536 c63c 383d 73bd c431 2bbc
00000130: 5d4d d8bc 7d98 67bc ccc9 2e3d aaa7 73bd
00000140: ae46 fc3c c1b4 7bbd 1763 693d 7c56 28bd
00000150: 41c1 ef3c 6f4e 32bd fdcb d13b c7b5 bf3c
00000160: 355e c9bc 4edc 973c 86ca a43d d1e5 64bc
00000170: 7646 723d 59ba 3ebd bbc6 4cbd be96 5fbc
00000180: d29d 2e3a f127 fe3b 25d2 0e3c c109 383d
00000190: 4096 613c ecca bebc 3e10 123d b018 343a
000001a0: c41a 363c 5975 e2bc 17f5 6bbc 6700 873d
000001b0: 9553 a23d b2ce d83c d1cf 9c3b d323 273d
000001c0: fd07 403d 2017 83bd 1570 153d 6204 a2bd
000001d0: 9a73 543d 3562 fcbb 5ab5 4fbd 6ba8 46bc
000001e0: 819f 9bbc 15ed dfbd ac3a 863d fc1d 07ba
000001f0: 2aa9 f73c 3ff0 773c be53 3abd da18 c3bc
00000200: 1f30 a4bd 13e3 9d3c c4b9 a93c 56ae 2fbd
00000210: c435 243d f7bf 993c 7bd5 1d3d 7ee3 5b3c
00000220: af0a 1abd 69fe ed3c 6d23 48bd 011d 22bd
00000230: 763a 133e daaa 623d f77e 653d 2396 f63b
00000240: 2502 82bc f285 663c fb84 babd bab1 32bc
00000250: 1bef 18bd daad 8c3d 914f 063d 3510 653d
00000260: 7a94 c03d eca6 663d 7de3 8a3d 5653 07bd
00000270: be33 00bd 7039 953d 5de6 393c 09f4 76bb
00000280: a8f4 0cbd a2ab 13bd 6122 303c 757b 883d
00000290: c62e 393c 5004 e43b 25e7 49bb af3c 9e3d
000002a0: 71cc 05bd d63b fd3c 0280 eebd 4dc9 573d
000002b0: 8ee5 e33d d6b6 b03c 085c 163d 76ff cd3c
000002c0: bf80 5abc 6d32 e8ba 6a12 28bd 1c5b 8dbd
000002d0: f6fd ccbc 2196 05bb a0f3 66bd 12fc ae3c
000002e0: 9972 863d 5909 763b a635 77bc 5ef9 303d
000002f0: 57dd 8ebb d700 90bc d6be 623b 193c 82bd
00000300: 990e 52bc dd49 be3c e026 b8bc 5edf 0b3d
00000310: 9b92 3ebb 50e2 7f3c eb40 5cbd bbf3 dabc
00000320: 837f 963d d819 88bd f590 57bd 79a6 58bc
00000330: cfdc 433d 473a 733c adb5 4dbd 4c38 fdbd
00000340: 20bd 11be 1d52 243c c900 14bd ac10 f6bc
00000350: e8a5 903c be3f 683d 8795 593c 2a95 f03c
00000360: 9427 8d3c 5c40 aebc f120 b5bc 587a 743d
00000370: c3cf cdbc 33ab c5bc 7116 30bd 3459 6dbd
00000380: 5614 0cbd 56ea 69bd bef6 89bd 6e02 893d
00000390: 190b bf3d d16c 72be fed0 cb3c 3c53 aa3c
000003a0: 6364 86bc 9c92 d13d 64eb 35bd 3825 293d
000003b0: f0fa 2e3d 4d6b 823d e1aa 5c3c 225d c63c
000003c0: 0c39 4e3d 1f94 a6bd 6792 57bd f7c6 99bd
000003d0: c953 803c 5a21 aa3d a5b1 563c da31 6bbd
000003e0: 6a91 573d 9678 9bbd 2c61 cbbc a45a 01bd
000003f0: 0656 f7bc 219f 92bd c710 3e3d 60f3 bcbd
0.06304029 0.051281203 0.046363328 0.046085242 0.0404327 -0.056625385 0.02334417 -0.04843984
-0.11020588 0.118885316 -0.090760544 -0.06352824 -0.04551249 -0.0084632225 -0.088133655 -0.087870784
0.114170656 0.077439904 -0.078468196 -0.049439184 0.030141125 0.053597167 0.027058052 -0.022404883
-0.019238612 0.027350575 0.088065624 0.0026460367 0.06618724 0.05624493 0.0065278015 0.049309537
-0.12762856 -0.06187497 0.004449629 -0.00662628 0.03447545 0.046707492 0.026237817 -0.059006747
-0.033916574 -0.04423882 0.0044026026 0.05032567 0.020823162 -0.001229397 0.02624858 -0.037099257
-0.030869246 0.0025530541 -0.009421989 -0.00023438699 0.016628696 -0.004483463 0.04046733 -0.0063957623
0.0062096175 -0.048034035 -0.011873548 -0.08149277 0.06682458 -0.08167907 0.01806675 -0.023659915
-0.034127288 -0.062024552 -0.07845309 0.016826186 0.053840455 0.026868712 0.02530404 -0.04337739
-0.012853576 0.024196068 -0.059384555 -0.010448877 -0.026404077 -0.014135477 0.042672917 -0.05948607
0.030795421 -0.061451677 0.056979265 -0.041098103 0.029266955 -0.04353183 0.006402491 0.023402108
-0.024581054 0.018537667 0.08046441 -0.013970808 0.059149228 -0.046564434 -0.04999421 -0.01364678
0.00066610903 0.007756226 0.008717095 0.044931177 0.013768733 -0.02329012 0.03566002 0.0006870134
0.01111478 -0.027643846 -0.014401696 0.065918736 0.07926098 0.026465748 0.004785516 0.04080565
0.04688262 -0.06400895 0.036483843 -0.07910992 0.05186806 -0.007702137 -0.05071006 -0.012125115
-0.018996956 -0.10933892 0.065541595 -0.00051543093 0.03023203 0.015132963 -0.04549002 -0.023815561
-0.08016991 0.019273316 0.020718463 -0.04289087 0.040090337 0.018768294 0.03853367 0.013420938
-0.037607845 0.029051976 -0.04886191 -0.03957844 0.1437777 0.055338718 0.056029286 0.007525222
-0.015870163 0.014070021 -0.09107395 -0.010906631 -0.037337404 0.06869097 0.032790724 0.05592366
0.0940332 0.056311533 0.06781671 -0.03303846 -0.031299345 0.07286346 0.011346427 -0.0037682077
-0.03441301 -0.036052354 0.010750384 0.066641726 0.011302656 0.006958522 -0.003080794 0.07726418
-0.032665674 0.030912321 -0.11645509 0.05268221 0.111277685 0.021571558 0.03670886 0.025146227
-0.0133363595 -0.0017715223 -0.041033186 -0.06902143 -0.025023442 -0.0020383673 -0.056384683 0.02136043
0.065648265 0.0037542193 -0.015088474 0.043206565 -0.004359882 -0.017578525 0.003459861 -0.06359119
-0.012820863 0.02322858 -0.022479475 0.034148566 -0.0029079083 0.015617922 -0.053772848 -0.026727548
0.0734854 -0.06645554 -0.052628476 -0.013223284 0.047818 0.014845437 -0.050222088 -0.123642534
-0.14232302 0.010029343 -0.03613356 -0.030037247 0.017657235 0.056701414 0.013280279 0.029368002
0.017230786 -0.021270923 -0.022110434 0.05968699 -0.025123483 -0.024129486 -0.04299015 -0.0579464
-0.03419908 -0.057108246 -0.067365155 0.066899166 0.093282886 -0.23674323 0.024879929 0.020791642
-0.01640529 0.10233042 -0.04441394 0.04129526 0.04271978 0.06368122 0.013468475 0.024214331
0.050347373 -0.081337206 -0.052629855 -0.07508653 0.015664952 0.083071426 0.013103877 -0.05742059
0.052628912 -0.07591359 -0.024826609 -0.031580582 -0.030192386 -0.07159258 0.04640272 -0.092261076

lstm.bias_ih_l0 f4 [800]
00000000: 081b 313c f54d d73d cd04 97bd a13c dabb
00000010: 4678 c93d 3f78 6bbd 1c96 87bd 83a3 833d
00000020: 3c13 48bd 1ee4 1abc c8c0 1d3d 6a0c 9f3d
00000030: eb94 35bd 189c 1ebd a3f1 72bc a1f9 b63c
00000040: d872 af3d 8daa 953d 6ff2 9dbc 9bea db3c
00000050: 6b6b a43c 2628 3abd 601d c9bc 8d03 4fbd
00000060: d9aa 1d3d 32ba ad3d ab22 69bb b446 173b
00000070: f497 073e 2671 bd3c 3810 153d 3dee 7abc
00000080: 0e9d 02bc a954 233d fbd8 c13d 426b 9eba
00000090: 6a9b 3a3d aa8b 8a3d 260a 5b3c d413 e0bc
000000a0: b42f 9f3d 2e6e 3cbd 3c01 c7bc c2fe da3d
000000b0: 7739 0b3d 19a4 4e3d 9dcb 203d f797 2dbd
000000c0: 8fed 4a3d f048 ac3d d37c 2e3d 960c 68bd
000000d0: 697f 653c f9bd 4bbd 5cfa 1a3d 10f1 2d3b
000000e0: ad2d 35bd 3093 c3bb fc8f b93d cec7 ddbc
000000f0: a546 813b ec52 0f3d 6456 d0bc a941 d43c
00000100: 94c4 1dbd b545 1e3d 5992 4c3d 6fb7 38bc
00000110: c547 71bc 5652 39bd cf9a 3c3d d482 833d
00000120: af90 96bc 4af2 cdbc 148a 7dbc 9610 f23c
00000130: 8264 983d 5fa4 2abd 3559 cc3d 57e4 0fbc
00000140: 31dc 70bd 5b10 553d 2c59 6c3d 2b93 2b3d
00000150: c553 b43d 0569 4e3d 5a50 733c 1748 7c3d
00000160: 2d9e 3d3d 0f45 bd3d 1b2e e7bc 20c0 173c
00000170: b8ce 02bd 363e a53d cf29 08bd 01a7 8b3c
00000180: 2e5a d93c 13ea 67bd 6e4f e1bb aa40 9f3d
00000190: 39cd 873c cc5a ecbc 488f 6cbb 33f6 953d
000001a0: 63ca 2ebd e79c fd3c 6062 8d3c 8b73 4d3d
000001b0: 4b2b ec3d 8286 713d ac32 ad3d 9062 8e3d
000001c0: ba6b e33c 6452 2f3c 9c96 a53c b792 a9bc
000001d0: bb98 28bd 6678 773d 0685 db3b 03e4 a63c
000001e0: 5ddc 61bc a9fa bb3c cdf1 5b3c 0c86 823d
000001f0: 1dab db3c de86 973d 7320 903d a06d 6abd
00000200: f964 86bd 5b82 13bd efd4 5b3d aeea 0fbd
00000210: fff2 e13b a4f5 28bc a936 ba3c 073b 70bd
00000220: 807e 553b cc19 2f3c e557 933d bedb 763d
00000230: 4d50 40bb 6f51 3abc 2586 22bd de46 60bc
00000240: 6939 473d 4bde 183d 120d 1e3d 70f5 bc3c
00000250: 747d 4c3c 2076 7c3d 6056 f83c 56ba 083c
00000260: 115c 053d f43b 25bd 60e4 16bd 4b37 b43d
00000270: 353f 42bd f2c3 9f3d 733c a83c 9378 c93d
00000280: faf1 723c 3bb9 613d 5589 0a3c 6b57 6e3d
00000290: b597 053d 72ff 49bd cc97 96bc 1167 313d
000002a0: d05c fa3c 9550 4dbd 7df0 9fbc 33a0 41bd
000002b0: 9b9e ee3c e759 693d 1bde b0bb b272 833d
000002c0: 0725 60bd b3f5 40bd ead1 a33d 164e 1e3d
000002d0: 3811 723d bfa4 fc3b 3cb1 8a3d 8685 95bd
000002e0: 9f2b 7b3d 7fab ad3c 1f7a 5bbc 4c6a 4d3c
000002f0: be26 8dbc ea57 3bbd 033f efbc 170a a6bd
00000300: 8cb2 d1bc f2a4 8bbc 91c9 313d 520f 583d
00000310: f8a6 30bd e6de b4bc 943e 8fbc e423 633b
00000320: c671 f43b 6eba 80bc 772b 933d ff00 103d
00000330: 7b58 2b3d b887 c93d 7627 ba3a 609b 273d
00000340: 1c0a ae3d a907 c63c a21b a33d 77f9 483d
00000350: 6fdf c93c 9e7d 713d 097c ad3d b8a5 5c3c
00000360: 5107 40bd f87c 5a3d fa3d c93d 6074 e03b
00000370: 26a8 3e3d 0022 8a3d cc4c 27bc 72f5 093d
00000380: a33c 4d3d c7fb a93c 78bf 41bd 2ba3 8ebd
00000390: 837c a73d 4531 f8bc d841 183d a516 373d
000003a0: b037 1b3d f2d1 e53d 27b3 c03d 7dfa 26bc
000003b0: e259 843d 2ebc 973d d316 cb3c f4fd ef3c
000003c0: 464d ec3d c153 cf3c 4650 4c3d e643 933d
000003d0: bc6c 23bd 1f8d 2b3d fc2c f7bc e9b6 87bc
000003e0: e25a b2bc 38d7 f2bc fe82 a9bc 5687 513d
000003f0: 4f8d 993d 2f1c 893c 7339 86bd 49f5 9c3c
0.010809667 0.10512916 -0.073739626 -0.0066600596 0.098373935 -0.057487722 -0.06620428 0.06427672
-0.04884647 -0.009453801 0.03851393 0.0776604 -0.044331472 -0.03872308 -0.0148281185 0.02233583
0.085668266 0.073079206 -0.01928064 0.026845267 0.020070752 -0.045448445 -0.02455014 -0.050540496
0.03849301 0.084827796 -0.0035573642 0.0023082914 0.1324156 0.023125242 0.03639242 -0.0153155895
-0.007972015 0.03987566 0.09465214 -0.0012086409 0.04555837 0.0676492 0.013369119 -0.027353205
0.077727705 -0.046003513 -0.02429258 0.106931224 0.03399035 0.050449464 0.03925668 -0.042381253
0.04954296 0.08412349 0.04259951 -0.056652628 0.014007428 -0.04974172 0.037836418 0.002654139
-0.044233013 -0.005968474 0.09060666 -0.027072813 0.003945189 0.03499119 -0.02543182 0.025910215
-0.03851755 0.038640697 0.049944256 -0.011274203 -0.014726584 -0.045244537 0.046046074 0.06421438
-0.018379537 -0.025139946 -0.015474815 0.029548924 0.07441045 -0.041660663 0.099779524 -0.008782468
-0.05880374 0.05201755 0.05770223 0.041888397 0.0880504 0.050393123 0.0148507 0.061592188
0.046293426 0.092416875 -0.028220227 0.009262115 -0.031935424 0.080685064 -0.033242997 0.017047407
0.026532259 -0.056619715 -0.006875924 0.077760056 0.01657735 -0.02885189 -0.0036096144 0.073223494
-0.04267348 0.030958606 0.017258823 0.05015902 0.11531695 0.058966167 0.084569305 0.06952393
0.027761329 0.010700796 0.020213418 -0.020699842 -0.04116128 0.060417555 0.0066992072 0.020372396
-0.013785449 0.022946673 0.013424349 0.06373224 0.026814992 0.07398771 0.07037439 -0.057233453
-0.06562228 -0.03601299 0.053669866 -0.035135917 0.0068954225 -0.010312472 0.022731142 -0.058650043
0.003257662 0.010687303 0.07194499 0.060268156 -0.0029344738 -0.011371954 -0.03967871 -0.013688771
0.048638735 0.03732137 0.038586684 0.023066252 0.012481082 0.06163609 0.030314624 0.008345207
0.032558504 -0.04034038 -0.03683889 0.08799609 -0.04742356 0.078010455 0.020536637 0.09837451
0.0148281995 0.05510829 0.008455594 0.058188837 0.032615382 -0.049315877 -0.01838293 0.043311182
0.030561835 -0.050125677 -0.019523853 -0.04727192 0.029128363 0.056970503 -0.005397571 0.06418361
-0.054722812 -0.047109317 0.07999022 0.038648687 0.059098452 0.007710069 0.06772086 -0.07300858
0.061320897 0.02119994 -0.013395815 0.01253755 -0.017230388 -0.04573814 -0.029204851 -0.08107393
-0.025597833 -0.017046425 0.04340512 0.052748986 -0.043127984 -0.022078943 -0.017485894 0.0034658844
0.007459852 -0.015713897 0.07186025 0.0351572 0.04183243 0.098403394 0.0014202434 0.04091966
0.08498022 0.024173575 0.07964255 0.049066033 0.024642674 0.05895769 0.084709235 0.013467245
-0.046881977 0.053341836 0.09826274 0.0068498105 0.046547078 0.06744766 -0.010211181 0.03368134
0.050106656 0.02074994 -0.04730174 -0.069647156 0.081780456 -0.030296931 0.03717217 0.04469933
0.037894905 0.112216845 0.094091706 -0.010191557 0.06462456 0.07408939 0.024791157 0.029295899
0.11538176 0.025308492 0.049881242 0.07190685 -0.03989862 0.04188263 -0.030172817 -0.01656671
-0.021771852 -0.02964364 -0.020692345 0.051154457 0.074976556 0.016737072 -0.06553926 0.01915993

lstm.bias_hh_l0 f4 [800]
00000000: 4d50 c2bd e706 22bc d717 813d 43af b73c
00000010: a028 d13b 32d8 a63a c677 45bd ee30 873d
00000020: 87cc 3dbd 49a1 86bd 0228 bfbc 2663 b73d
00000030: 94f7 3c3d fa93 273d ba6f da3c 766b ccbb
00000040: f0f2 96bb b4f5 5b3d 17c5 933c 2b6f 883d
00000050: d510 c1bd fa80 51bd 4206 78bd 3bfa 513d
00000060: 905f b03c c0d8 3c3d 87a9 743d 8af0 d03c
00000070: 60b4 7f3d adb9 c0bc 900e 72bd ec33 13bc
00000080: d504 3abb 85dd 543d c8c9 b63d f13a b13c
00000090: 1a4b 393d 37b7 3abc 3133 733d de43 303d
000000a0: e344 f93c deef d2bc f206 903d 12f0 7b3d
000000b0: 4fb6 0f3d 098c b53d 4d95 bbbc 57b5 bc3b
000000c0: e276 373d 42ff d73d e585 763c 7f27 ecbc
000000d0: 40dc 9c3d 90e7 873d 2d1f 26bb 2651 1a3d
000000e0: e49f 45bd 3c18 6e3c e839 3bbd 740e 89bd
000000f0: fd8b 963d 77c5 1abd 0ec8 7ebd 0194 0ebd
00000100: fbf1 54bc 69cd 553d 7826 81bc 7410 073d
00000110: 8583 4f3d a682 673d baad 86bc 3c53 f13b
00000120: 7276 493b a482 febc a435 2bbd 0903 663d
00000130: ef06 783d 53ba 923c d1e5 1dbc aeae 863b
00000140: 9074 7ebd 1560 a8bc 9e98 8a3d 601f 89bd
00000150: b507 bfbc 0da8 76bd 38ef 683c 9a9c 833c
00000160: 4491 6d3d 5304 033e 145a b4ba d9bf 813d
00000170: 7ba4 dcbd fd90 c13d 6578 39bd 5335 503d
00000180: c94b 84bc e97c 74bd b8d5 b53c 6b5d c03c
00000190: eda3 59bd 3a85 0d3d 542c 4dbd 5f98 e23c
000001a0: f949 b73c e6cf 403d f2ff 993a b3d1 573d
000001b0: 8003 d53d 223f f13c 6241 913d 79c8 79bd
000001c0: b230 293d ed14 21bc 1286 bcbd 1365 a23c
000001d0: fa07 bb3c dd78 ec3c 6bab 303d 0e61 6f3d
000001e0: ef17 22bd 19fd 963d ddbd 9cbc 59b7 743d
000001f0: 5fd1 ad3d dd33 c83d 7b71 8a3d 3c62 903d
00000200: f9a7 37bd 81d1 dd3c c4f8 1a3d e336 633d
00000210: cf1d 6f3d 7d24 3f3d 34e3 6d3c abb9 173d
00000220: 7375 c83d c620 b03d aa90 513d 7639 063d
00000230: bae4 be3c 18cd d83b 2ab9 093c 7571 343d
00000240: 4b83 863d 15d0 0bbd 22dc 823d 5534 b63d
00000250: dcd4 b03d 64cf 833d c2a2 963c 7043 303d
00000260: 1fd9 66bd a852 08be 27ec 6eb9 15e9 5fbc
00000270: ab11 dabc 2f82 f53c 6d45 e93b 04f0 103d
00000280: 698a 55bd 50d7 943c 90b5 2e3d 0e05 5d3d
00000290: 70d2 49bc 877e 003d dfd2 abbb 8c99 e93d
000002a0: 66eb c03d 8efa 28bc 066b fe3b f9c0 ffbc
000002b0: 6bf0 a2bb bc1f 8e3d 8166 d33d 8137 6d3d
000002c0: 5475 c6bc 45a1 863c ba89 bcba 0b6f 6abd
000002d0: 91e0 9dbc 2cc2 88bc c7cd 633d 8d17 9abd
000002e0: 0f14 ad3d 8acd 0b3d d209 cdbc 6a7d 7a3d
000002f0: e84a 07bc 2f8d 1e3d 0293 6fbd 86ba 09bd
00000300: c01e 98bc 60e4 6bbb ba2d 5a3d a048 b13d
00000310: 30d7 33bd 4ac6 7b3c c2c9 a9bc aa91 76bd
00000320: d38b 3bbd 0f7b d93b 2445 e33c 9679 9c3d
00000330: 34f5 bb3d e3d7 6b3d 28b8 bf3d 6955 933c
00000340: 45fb 993d 6947 ce3d 2a1d 183d cfa1 a93d
00000350: 5184 e9bc 0161 8d3c f1d9 bb3d f191 0d3d
00000360: 1a1f 993d 2558 893d a235 443d 257a 873c
00000370: 54a8 0a3c 4d03 a7bc ac17 87ba 8f5a 32bd
00000380: 5bd0 8c3a 624b 413c 941a de3c 45e2 86bc
00000390: 9971 ca3a 6c22 31bd 09fb 973d fc15 45bd
000003a0: 374f cb3b c1fd c53c 3ac4 7fbc 78db ba3d
000003b0: 2ca0 903c f4ba 273b 38cd 693d db7b 02bd
000003c0: 2048 753d 475f cb3d a884 7e3d fd2c 42bd
000003d0: ce49 023c 44ad 22bd 1792 553d 8e98 923d
000003e0: 3c0e 9f3d b5d6 b73d 8de4 4d3d d842 40bd
000003f0: b49c b6bb 68ec 293d 72cd 19bd 8e52 2cbd
-0.094879724 -0.009889341 0.06303375 0.022422438 0.0063830167 0.0012729226 -0.048209928 0.066011295
-0.04633763 -0.065737315 -0.023334507 0.08954458 0.046134546 0.040912606 0.026664604 -0.0062383963
-0.004606597 0.053701118 0.018038316 0.066618286 -0.094270386 -0.051148392 -0.060552843 0.05126403
0.021529943 0.046105146 0.059731986 0.025505323 0.06242788 -0.023526037 -0.05909592 -0.008984547
-0.0028384228 0.05196907 0.089252055 0.02163455 0.045237638 -0.011396221 0.05937499 0.043033473
0.030428356 -0.025749143 0.07032575 0.061508246 0.035085972 0.088646 -0.02289834 0.005758922
0.04479111 0.105467334 0.015046571 -0.028827427 0.07659197 0.06635964 -0.0025348172 0.037675045
-0.048248187 0.014532145 -0.04570952 -0.0669221 0.073509194 -0.037785973 -0.062202506 -0.034809116
-0.012997146 0.052197848 -0.015765414 0.032974675 0.050662536 0.05652108 -0.016440261 0.0073646586
0.0030740765 -0.031068154 -0.041799203 0.05615524 0.060553487 0.017911112 -0.009637312 0.004110179
-0.06212288 -0.020553628 0.06767391 -0.066954374 -0.023319105 -0.06021886 0.01421719 0.016065884
0.057999864 0.12794618 -0.0013759756 0.0633542 -0.1077356 0.094514824 -0.045280833 0.050832104
-0.016149418 -0.059689436 0.022196636 0.023482045 -0.053134847 0.034550883 -0.050091103 0.027660547
0.02237414 0.047073267 0.0011749251 0.05269022 0.10401058 0.02944905 0.07092549 -0.0609822
0.041306205 -0.009831649 -0.092052594 0.019823587 0.022830952 0.028866226 0.043132227 0.058442168
-0.039573606 0.07372493 -0.019133503 0.059745166 0.084872 0.09775517 0.06759926 0.07049987
-0.044837926 0.027077438 0.037834898 0.055472266 0.058378037 0.046665657 0.0145195015 0.0370423
0.09788027 0.08600001 0.051163353 0.032769643 0.023302425 0.006616246 0.008405963 0.044053514
0.06568011 -0.03413399 0.06389643 0.088967 0.0863435 0.06436041 0.018388156 0.043033063
-0.056359407 -0.13312781 -0.00022785422 -0.013666411 -0.026619753 0.029969303 0.007118872 0.035385147
-0.05213395 0.018169075 0.04265362 0.0539599 -0.012318239 0.031370666 -0.0052436437 0.1140624
0.09419899 -0.010313643 0.007764223 -0.031219946 -0.0049725077 0.069396466 0.103222854 0.05791426
-0.024225868 0.016434321 -0.0014384307 -0.057234805 -0.01927212 -0.01669415 0.055616166 -0.07524023
0.084510915 0.034131564 -0.025029097 0.06115476 -0.008257605 0.038708862 -0.058489807 -0.03362515
-0.01856935 -0.0035994276 0.053266264 0.0865643 -0.04390639 0.0153671 -0.020726088 -0.06019751
-0.045787644 0.006636984 0.02774293 0.07640378 0.09177628 0.057578932 0.09361297 0.017985063
0.07518629 0.10072214 0.037137188 0.08282816 -0.028505476 0.01725817 0.091724284 0.03456301
0.07476635 0.06706265 0.04790271 0.016537735 0.008462984 -0.020387316 -0.0010306737 -0.043543395
0.0010743247 0.011797758 0.027112283 -0.016465316 0.0015445232 -0.043245718 0.07420928 -0.04811667
0.0062045115 0.02416885 -0.015610749 0.091238916 0.0176545 0.002559361 0.057080477 -0.0318564
0.059883237 0.09930282 0.06213823 -0.047406185 0.007952167 -0.03971602 0.052141275 0.07158004
0.07766387 0.08976499 0.05026679 -0.046938747 -0.0055728797 0.04148522 -0.037549444 -0.042070918

linear1.weight f4 [1, 200]
00000000: ca07 28bd f575 0c3d c563 493d 738b a33c
00000010: 374a f1bc ff11 9cbc 809b 3fbc f0c2 42bd
00000020: a75d a73c 90ae 4bbc f32b 9e3c 53af 3d3d
00000030: f7fb 0dbd e54e 8fbd a173 893c 9c94 c83c
00000040: e9d0 82bc a883 91bc 6c55 0dbd 0640 0ebd
00000050: 6ac8 633d f632 91bd 1341 72bd 581e 2b3d
00000060: 5a67 2fbd df0a 2f3d b251 7ebd 9524 1dbd
00000070: d5c3 8dbc a8b9 ca3c bb46 ffbc c59c 523d
00000080: 2752 8e3b f93c 083d a6dd 0d3d a69b 69bc
00000090: 902b 923d 9f0d 1e3d ed9e 7d3d e548 0b3d
000000a0: 5484 b6bc c97d 10bc 445e 70bd 50c4 15bd
000000b0: 184d 6a3d d93d 273d 7026 85bd 1275 3cbd
000000c0: f1c1 8c3d 9167 843d 8efd 4d3d 3a92 6f3d
000000d0: ca46 853d 5f2c 69bd 6b08 3a3d 83be 13bd
000000e0: 8ce4 2c3d 6958 883d de89 d93c f1da 6f3c
000000f0: 9211 8a3d 9384 293d 0ce2 df3c 83a8 223d
00000100: d22e e0bc cce7 a73c 7fac 41bd 528a 11bd
00000110: 265c 70bd efdd 7c3d 4003 a0bc 5dce 29bc
00000120: 15bb 0fbd e984 633d 06d2 60bd 751b 18bd
00000130: 3615 403d 3ea1 59bd 2e08 74bd a75e 5e3d
00000140: f361 393d 365b 5e3d 4022 683d ab45 ebbc
00000150: 2dc4 4ebc cfa0 f43c dc88 40bd 9648 f0bc
00000160: dfee c8bc d190 c53c da75 83bd 40b1 03bd
00000170: eb1b 24bd 17da 263d c6f9 82bd f92c 4b3d
00000180: 4891 bd3c aa14 e5bc 8ab7 853c 6a93 853d
00000190: 404e 153d d3aa 7fbd a667 5fbd 0fc9 16bd
000001a0: 4eca 27bd 3aa1 41bd 4cb2 0fbd b3de e5bc
000001b0: a7fc c33c 2a7a 50bd a0a3 253d eb09 35bd
000001c0: ef03 81bd d75a 74bd 3b58 803c ece3 4f3d
000001d0: 911e f63c 841f 4f3d 3cb9 b33c fbb2 d1bc
000001e0: 7b63 e83c 63b1 a63c ed92 fabc 9144 4b3d
000001f0: fb26 6e3d 78c5 593d faa4 e23c f961 913d
00000200: 409f a73c 518e 5e3d d571 8bbc 6840 85bd
00000210: 8b76 e43c af4f 03bd 0f77 8a3c b27e 303d
00000220: ccfb 3dbd 3014 183d df73 c4bc e5d4 6f3c
00000230: 291f 99bc 25e8 a43c 4d18 1dbd 9065 cdbc
00000240: 6be9 683c 0c58 5dbd b3ef 3dbd b294 e2bc
00000250: d94b 12bd aeff 5c3d 10db 46bd 26b4 2fbd
00000260: 0798 52bd 0060 6c3c c317 003d bf10 2cbd
00000270: a3d1 82bd 6ae8 86bd cad5 a7bd 8ebd b2bc
00000280: ab7f 06bd e9da 87bc f0f9 eabc 446e 843d
00000290: 521f 58bd ee5c 7fbd 5680 2abd 77a8 12bd
000002a0: 694c c5bc 3708 5a3d 7121 a03d 4e68 a0bd
000002b0: aaf2 c9bc 373f dbbc 6c86 0b3d c969 893d
000002c0: c611 1fbd 9a48 94bd c9d0 233d af3c 133d
000002d0: 5a7b 3c3d 6100 1dbd 3b05 f1bc 3160 af3d
000002e0: b5ab 6abd 094b 823d 45b7 41bd 9458 953d
000002f0: 3d6f e3bc 9006 b33d 38e0 c83c e803 02bd
00000300: 9cd2 463d 29b6 1bbd d5c7 88bc ff24 f7bc
00000310: 8b9b 6d3d 0953 0c3d 53d5 dcbc 96aa 363d
-0.041023053 0.03429218 0.049167413 0.019963956 -0.029454334 -0.01905155 -0.011694789 -0.047549188
0.0204304 -0.012431756 0.019308066 0.04630978 -0.03466412 -0.0699747 0.016778769 0.024484925
-0.015968757 -0.017762974 -0.034505293 -0.034729026 0.05561105 -0.07089798 -0.05914409 0.041776985
-0.042823173 0.042734977 -0.06208963 -0.038364965 -0.017305294 0.02474673 -0.031161657 0.05141904
0.0043432894 0.033261273 0.03463521 -0.014258301 0.07137215 0.03858721 0.06191914 0.034005065
-0.022279896 -0.008819052 -0.05868365 -0.03656417 0.05720243 0.040830467 -0.06501472 -0.046010084
0.06872929 0.06465066 0.050290637 0.058489062 0.065076426 -0.05692708 0.045418184 -0.036070358
0.042210147 0.06657488 0.026554998 0.014639602 0.067416325 0.0413862 0.027329467 0.039711487
-0.027366076 0.020496272 -0.047283646 -0.035532303 -0.05868163 0.06173509 -0.0195328 -0.010364142
-0.035090525 0.055546675 -0.054887794 -0.03713556 0.04689523 -0.05313229 -0.059578113 0.054289486
0.045259427 0.054286204 0.05667329 -0.028719744 -0.012620014 0.029861836 -0.04700552 -0.029331487
-0.024527965 0.024116905 -0.06418963 -0.03215146 -0.040065687 0.04073533 -0.06395297 0.049603436
0.023140565 -0.027963955 0.01632287 0.065222576 0.03645158 -0.06241877 -0.054542206 -0.03681284
-0.040964417 -0.0472729 -0.035082147 -0.028060293 0.023924185 -0.050897755 0.040439248 -0.04419891
-0.062995784 -0.059656944 0.015667072 0.050754473 0.030043872 0.050567165 0.021938913 -0.02559804
0.028367748 0.020348256 -0.030587638 0.049625937 0.058142643 0.053166837 0.027666558 0.07098765
0.020461679 0.054334942 -0.017022053 -0.06506425 0.027888557 -0.032058414 0.016902475 0.043089576
-0.04638271 0.037128627 -0.023981033 0.01463816 -0.018691616 0.020130226 -0.038353253 -0.025072843
0.014215807 -0.054039046 -0.046371173 -0.027658794 -0.035716865 0.053954773 -0.048548758 -0.042896412
-0.051414516 0.014427185 0.03127266 -0.042008158 -0.06387641 -0.06587298 -0.08195074 -0.021818902
-0.032836597 -0.016583877 -0.028683633 0.06466344 -0.052764244 -0.062344484 -0.041626297 -0.03580519
-0.024084287 0.05323049 0.078188784 -0.078323945 -0.024651844 -0.026763542 0.03406374 0.0670963
-0.03883531 -0.0724041 0.039994035 0.035946544 0.046016075 -0.03833044 -0.02942144 0.08563269
-0.05729266 0.06361968 -0.04729392 0.072922856 -0.027763003 0.08741486 0.024520978 -0.031742007
0.048540697 -0.03801552 -0.01669685 -0.030169008 0.058009665 0.034258876 -0.02695719 0.044596277

linear2.weight f4 [1, 200]
00000000: 761d 5fbd 6dd4 6cbd 6efc 723d 6876 af3c
00000010: 8806 92bc 18c2 703c 7cd3 f83c 0085 493b
00000020: a261 7abd 7897 9e3c 609e 84bb d840 743c
00000030: 9a6a 9bbc 302b 5b3c 3009 51bd ac98 5bbd
00000040: f4b6 d7bc c6fd 55bd e8a6 083c 2047 06bb
00000050: 6618 0f3d 100a 93bb 84d2 afbc d1af 7fbd
00000060: 63cd 25bd 54fc 07bd 38e4 f7bc 402a c4bc
00000070: 80be 8abd 1241 733d 401c 1c3b 4075 97bc
00000080: 8f49 75bd a013 1dbd e012 47bd 5678 7d3d
00000090: 429c 33bd f74b 6bbd 182d 013c 90a8 25bd
000000a0: 6e34 173d dc50 89bd 5251 e1bc 28d5 7fbc
000000b0: d418 fa3c 8a55 4a3d def3 703d 70b4 293c
000000c0: a0cf eebc df70 893d 3815 6bbc 1021 aabc
000000d0: fce7 89bd 90d3 1fbc 3c2b 8abc 7299 083d
000000e0: 40f2 843c 3029 f23c 2e4c 193d 56d5 653d
000000f0: 58e5 373c 3578 59bd 724a 50bd 0065 cd3c
00000100: a832 423c 8109 14bd d407 84bd 12ac a5bc
00000110: b0da 2abc a149 8b3d 88a8 123c 0cf1 77bd
00000120: d8c0 493c 3c55 233d af05 803d bcbb 27bc
00000130: f469 64bc 21e7 81bd ad4c 0dbd 4056 00bd
00000140: 7091 713c c402 f8bc fe92 353d 90a4 d23b
00000150: 96a5 debc 2a96 633d bcd2 3d3d 1acc 3a3d
00000160: 8aca e8bc 6348 883d 00e9 e23a e042 3a3c
00000170: 6310 04bd d08b 533c 83c4 8e3d a6ac 423d
00000180: d47b 14bc 40fb 24bd 8620 7d3d fb4e 81bd
00000190: 7432 af3c e02b 363c 80fc f0ba 1c16 debc
000001a0: 512a 31bd 3b9a 863d 88f3 54bd 1049 67bc
000001b0: 4ef1 7a3d 2e19 85bc 9625 76bd d4b4 9a3c
000001c0: cbd3 8fbd 625a 563d 1090 903c bb18 8b3d
000001d0: 3687 6d3d fcc8 2b3d b334 76bd 5819 0dbc
000001e0: 1459 acbc 4ca1 f63c 86e8 503d c0e7 773c
000001f0: 1463 a2bc 7084 e4bb 5aac 4abd 2660 dabc
00000200: d3c0 5cbd 20ab e93b a092 3b3c f894 e13c
00000210: 7c11 963c 18aa f9bc 0643 a0bc 6838 3f3d
00000220: 48d9 573c d015 ec3b 403c ae3c 943a 123d
00000230: 80fd c8bb 8018 5b3d 4e22 17bd a43b 9abc
00000240: e9bd 45bd c87c ccbc 57d3 1ebd de05 4fbd
00000250: 6066 773c 9095 123d d6e1 e6bc 6c50 64bd
00000260: 40a2 bf3a ca28 4fbd 9226 423d b2ec 3abd
00000270: 24b9 92bc 6a58 623d 6a01 60bd b8f6 5b3d
00000280: 566f c0bc 241a 833c c0c6 813b 340f ae3c
00000290: 0068 a1b9 e8e1 82bc c098 df3a 4a79 8dbd
000002a0: 8894 513d 925c 2f3d 0b54 75bd 5cc5 303d
000002b0: b012 873c 1053 8dbd 8588 823d 0281 6c3d
000002c0: 40cf 43bb 18d1 43bd 4b40 903d 945d 2fbd
000002d0: 4cb0 eb3c 7453 8fbd c82d 943c 8207 8abc
000002e0: 8da2 853d 1061 84bb 92ee dbbc e274 003d
000002f0: 70e8 723c 71f6 07bd a819 b23c 6a93 1a3d
00000300: b86f 723c 5760 0fbd b63c 1d3d 385c 5d3c
00000310: 4688 d5bc 402c 093b 607e 1c3c 597d 8cbd
-0.054471456 -0.057819773 0.059322767 0.021418765 -0.01782538 0.014694713 0.030374281 0.003074944
-0.061128266 0.019359335 -0.0040472 0.014908038 -0.01897173 0.013376996 -0.051034153 -0.053612396
-0.026332356 -0.05224397 0.008340575 -0.002048917 0.034935378 -0.0044872835 -0.021462686 -0.06242353
-0.040479075 -0.033199623 -0.03026019 -0.023945928 -0.06774616 0.059388228 0.002382055 -0.018488526
-0.059884604 -0.038348794 -0.048601985 0.06188234 -0.04385019 -0.057445493 0.007884286 -0.040443957
0.036915235 -0.06704876 -0.027504597 -0.015614785 0.030529417 0.049397983 0.05882632 0.010357961
-0.029151738 0.067109816 -0.014348321 -0.020767719 -0.06733701 -0.00975503 -0.016866319 0.03334946
0.016228795 0.029560655 0.037426166 0.056111656 0.011224113 -0.053093154 -0.050852247 0.025072575
0.011852898 -0.036141876 -0.064468056 -0.020223651 -0.010428116 0.06801153 0.008951314 -0.060532615
0.012314044 0.039876208 0.06251084 -0.01023763 -0.013941277 -0.063429125 -0.03449695 -0.031332254
0.014744148 -0.030274756 0.044329636 0.006428309 -0.027178567 0.05556313 0.04634355 0.045604803
-0.02841689 0.06654432 0.0017311871 0.011368483 -0.03224219 0.012911752 0.069710754 0.04752793
-0.009062726 -0.040278673 0.061798595 -0.063138925 0.021386363 0.011118859 -0.0018385798 -0.027110152
-0.043253247 0.06572386 -0.051990062 -0.014116541 0.061265282 -0.016247358 -0.06009444 0.018885054
-0.07022818 0.05233229 0.01764682 0.06791826 0.057990275 0.04193972 -0.06010885 -0.008611999
-0.02103857 0.03010621 0.051003 0.015130937 -0.019822635 -0.0069737956 -0.049480774 -0.026657175
-0.05389483 0.0071309954 0.011448532 0.027536854 0.018318884 -0.030476615 -0.01956321 0.046684653
0.0131743625 0.0072047487 0.021268964 0.035700396 -0.006133735 0.053490162 -0.03689795 -0.018827267
-0.048276816 -0.024961844 -0.038775768 -0.050542705 0.015100092 0.035787165 -0.028183859 -0.05574076
0.0014620498 -0.05057601 0.047400065 -0.045635886 -0.017910548 0.0552601 -0.05468885 0.053702086
-0.02349059 0.016003676 0.0039604604 0.021247484 -0.000307858 -0.015976861 0.0017059073 -0.069079
0.05116704 0.04281289 -0.059894603 0.043156967 0.016488403 -0.069006085 0.06373695 0.05774022
-0.002987817 -0.04780683 0.07043513 -0.042813852 0.028770588 -0.06998339 0.018088236 -0.016849283
0.06525145 -0.004039891 -0.026847158 0.031361468 0.014825925 -0.03319401 0.02174075 0.03773824
0.014797144 -0.035003986 0.038387977 0.013510756 -0.026065957 0.0020930916 0.0095516145 -0.06859846
